lib/src/main/assets/RetinaFace_FP16.onnx (onnx, 895327 bytes, 112 tensors)

ClassHead.0.conv1x1.weight f2 [4, 64, 1, 1]
0.3213 -0.0891 0.11475 0.1041 0.197 0.336 -0.1071 0.2037
-0.1348 0.1671 0.002375 0.0566 0.05524 0.2996 0.3042 0.2139
0.1923 0.0281 -0.06223 -0.0589 0.0418 0.1499 0.06027 -0.2905
-0.012276 0.02295 0.08636 -0.1438 0.11664 -0.17 0.2041 0.10876
0.3503 0.1799 0.03087 0.0905 0.2505 0.1766 0.02368 0.00433
0.1284 0.1643 -0.2134 0.08093 0.1469 -0.0922 -0.007996 -0.002028
0.03366 0.008896 0.01075 0.1444 0.03778 0.02528 0.1753 0.2568
0.4104 0.4492 -0.006477 0.1903 0.03656 0.0649 0.227 0.06396
-0.352 0.10266 -0.05682 -0.0783 -0.2578 -0.3005 0.0008645 -0.1686
0.06003 -0.2129 0.05615 -0.01714 -0.0465 -0.2878 -0.3325 -0.2937
-0.1675 -0.04855 0.04602 0.1735 0.01747 -0.1417 -0.000146 0.3696
-0.1244 0.08887 -0.09937 0.2815 0.02565 0.1873 -0.2722 -0.0817
-0.3452 -0.1432 -0.02654 -0.092 -0.2104 -0.2358 0.0738 -0.049
-0.0947 -0.05234 0.2128 -0.186 -0.2542 0.078 0.01104 0.0153
-0.0946 -0.0425 -0.02335 -0.1162 -0.03333 -0.0897 -0.2408 -0.2395
-0.3533 -0.306 -0.00792 -0.2773 -0.07404 -0.0804 -0.2341 -0.1744
0.3735 0.00619 -0.0352 -0.004375 0.08246 0.268 -0.02203 0.2007
-0.07294 0.3792 -0.002531 -0.0556 -0.01175 0.3337 0.1521 0.2485
0.1824 -0.04605 -0.0361 0.0677 0.0004747 0.1328 -0.1893 0.05643
-0.03119 -0.1028 -0.016 -0.3 -0.0816 -0.0803 0.2996 -0.07776
0.2306 0.2988 0.06995 0.07715 0.2091 0.314 -0.042 -0.009964
0.0671 -0.03012 -0.1853 0.2495 0.1738 0.212 0.00969 0.278
0.0369 0.0747 0.02339 0.01246 -0.003218 0.06003 0.1757 0.1365
-0.514 0.2065 -0.01613 0.239 0.1812 0.01991 0.2294 0.0611
-0.3228 0.01552 -0.03384 -0.002426 -0.0988 -0.2559 -0.0688 -0.1682
0.001125 -0.315 -0.001298 -0.006504 0.00318 -0.3513 -0.106 -0.361
-0.3125 0.00873 0.02759 0.02095 0.0106 -0.1718 0.2245 0.03114
0.10657 0.0964 -0.05594 0.337 -0.04175 0.0704 -0.275 -0.01129
-0.2042 -0.253 0.04602 -0.0862 -0.349 -0.2888 -0.02536 0.00937
-0.02304 -0.02274 0.0476 -0.237 -0.2478 -0.2798 0.00889 -0.284
-0.10394 0.004574 0.02995 -0.1045 0.0679 0.02565 -0.2479 -0.1615
0.5215 -0.2463 -0.00602 -0.345 -0.08044 0.10815 -0.2222 -0.0882
00000000: 2435 b4ad 582f aa2e 4e32 6035 dbae 8532
00000010: 50b0 5931 dd18 3f2b 122b cb34 de34 d832
00000020: 2732 3227 f7ab 8aab 5a29 cc30 b72b a6b4
00000030: 49a2 e025 872d 9ab0 772f 71b1 8832 f62e
00000040: 9b35 c231 e727 cb2d 0234 a731 1026 6f1c
00000050: 1c30 4231 d4b2 2e2d b330 e7ad 18a0 2798
00000060: 4f28 8e20 8121 9f30 d628 7926 9c31 1c34
00000070: 9136 3037 a29e 1732 ae28 272c 4433 182c
00000080: a2b5 922e 46ab 03ad 20b4 cfb4 1513 65b1
00000090: af2b d0b2 302b 63a4 f4a9 9bb4 52b5 b3b4
000000a0: 5cb1 37aa e429 8d31 7924 89b0 c988 ea35
000000b0: f6af b02d 5cae 8134 9126 fe31 5bb4 3bad
000000c0: 86b5 95b0 cba6 e3ad bcb2 8cb3 b92c 46aa
000000d0: 10ae b3aa cf32 f4b1 11b4 fe2c a721 d523
000000e0: 0eae 71a9 faa5 70af 44a8 bead b5b3 aab3
000000f0: a7b5 e5b4 0ea0 70b4 bdac 25ad 7eb3 95b1
00000100: fa35 571e 81a8 7b9c 472d 4a34 a4a5 6c32
00000110: abac 1136 2f99 1eab 04a2 5735 de30 f433
00000120: d631 e5a9 9fa8 552c c70f 4030 0fb2 392b
00000130: fca7 94ae 19a4 cdb4 39ad 24ad cb34 faac
00000140: 6133 c834 7a2c f02c b132 0635 60a9 1aa1
00000150: 4b2c b6a7 eeb1 fc33 9031 c932 f620 7334
00000160: b928 c82c fd25 6122 979a af2b 9f31 5e30
00000170: 1db8 9c32 21a4 a633 cc31 1925 5733 d22b
00000180: 2ab5 f223 55a8 f898 53ae 18b4 67ac 62b1
00000190: 9c14 0ab5 5195 a99e 831a 9fb5 c9ae c7b5
000001a0: 00b5 7820 1027 5d25 6d21 7fb1 2f33 f927
000001b0: d22e 2b2e 29ab 6435 58a9 812c 66b4 c8a1
000001c0: 89b2 0cb4 e429 84ad 96b5 9fb4 7ea6 cc20
000001d0: e6a5 d2a5 182a 96b3 eeb3 7ab4 8d20 8bb4
000001e0: a7ae af1c ab27 b0ae 582c 9126 efb3 2bb1
000001f0: 2c38 e2b3 2a9e 85b5 26ad ec2e 1cb3 a5ad

ClassHead.0.conv1x1.bias f2 [4]
0.473 -0.5454 0.612 -0.6885
00000000: 9137 5db8 e538 82b9

ClassHead.1.conv1x1.weight f2 [4, 64, 1, 1]
0.1731 0.3357 0.1974 -0.01549 0.083 0.242 -0.009674 0.2416
0.2893 -0.05148 -0.02036 0.2201 0.1488 0.1884 0.291 0.1868
-0.1632 -0.1454 -0.0889 0.145 -0.4624 0.03397 0.1426 0.0929
-0.2427 0.18 -0.09393 0.156 0.03656 -0.2556 -0.1412 -0.1604
0.1483 0.01614 0.02377 0.04565 0.3203 0.3118 0.05905 0.0359
0.02136 0.2083 -0.5996 0.0761 0.2251 0.1652 0.2362 0.11926
-0.01397 0.1234 0.05698 0.01487 0.3384 0.1198 0.0381 0.06165
0.06287 0.0789 -0.08984 0.0856 0.07336 0.503 0.4324 0.07367
-0.1562 -0.2148 -0.191 0.1621 -0.10785 -0.3245 0.0779 -0.1945
-0.3647 0.01034 0.1191 -0.3079 -0.142 -0.182 -0.2242 -0.05002
0.03885 0.0536 0.03622 -0.0816 0.561 -0.151 -0.1558 -0.007584
0.3054 -0.1111 0.0833 -0.125 -0.1625 0.2112 0.0539 0.188
-0.2152 -0.05536 -0.0234 0.02654 -0.3267 -0.1654 0.00894 0.0247
-0.02003 -0.2029 0.5293 -0.187 -0.2208 -0.2114 -0.1818 -0.1659
-0.1445 -0.05557 -0.0421 -0.0642 -0.3188 -0.0943 -0.05457 -0.167
-0.0149 -0.04755 -0.001852 -0.05807 -0.0898 -0.515 -0.31 -0.0856
0.07556 0.2632 -0.06726 -0.0647 -0.08966 0.448 -0.2384 0.1858
0.2659 -0.04422 -0.01557 -0.07135 0.3984 0.2064 0.019 0.179
0.24 0.0637 -0.04312 0.01187 -0.11444 -0.1936 -0.1427 -0.07904
-0.11523 -0.075 -0.1826 -0.03937 0.1418 0.008354 0.06934 0.137
-0.2656 -0.01043 -0.2637 0.1037 0.234 0.386 -0.169 0.0707
-0.06155 0.2544 0.087 0.5303 0.1954 0.266 0.3174 0.2964
0.0379 -0.07996 0.001207 0.01327 0.4622 0.2014 0.05154 -0.04135
-0.03284 0.003662 -0.04474 0.0424 0.03513 -0.506 0.3396 0.1017
-0.07166 -0.2186 -0.03497 0.02945 0.02672 -0.436 0.2426 -0.2793
-0.3386 0.1172 -0.06866 0.187 -0.2974 -0.276 0.01012 -0.1088
-0.1141 0.08344 -0.03894 -0.0467 0.0683 0.2191 0.011086 0.05573
0.1155 -0.06012 0.05753 0.1958 -0.0649 0.1329 -0.1159 -0.2554
0.2544 0.07117 0.1489 -0.11163 -0.2002 -0.354 0.2217 -0.01317
0.04117 -0.2239 -0.0916 -0.4604 -0.29 -0.1976 -0.2015 -0.2778
-0.0725 -0.058 -0.04507 -0.1257 -0.3647 -0.1334 -0.0917 -0.06094
-0.1271 -0.01865 -0.06354 -0.03525 -0.09064 0.5547 -0.464 0.0395
00000000: 8a31 5f35 5132 eea3 502d be33 f4a0 bb33
00000010: a134 97aa 36a5 0b33 c330 0732 a834 fa31
00000020: 39b1 a7b0 b1ad a430 66b7 5928 9030 f22d
00000030: c4b3 c331 03ae fe30 ae28 17b4 85b0 22b1
00000040: bf30 2224 1626 d829 2035 fd34 8f2b 9828
00000050: 7825 aa32 ccb8 df2c 3433 4931 8f33 a22f
00000060: 27a3 e62f 4b2b 9d23 6a35 ab2f e028 e42b
00000070: 062c 0d2d c0ad 7a2d b22c 0638 eb36 b72c
00000080: 00b1 e0b2 1db2 3031 e7ae 31b5 fc2c 39b2
00000090: d6b5 4b21 9f2f edb4 8bb0 d3b1 2db3 67aa
000000a0: f928 dc2a a328 39ad 7d38 d5b0 fcb0 c49f
000000b0: e334 1caf 552d 00b0 33b1 c232 e62a 0432
000000c0: e3b2 16ab fea5 cb26 3ab5 4bb1 9420 5326
000000d0: 21a5 7eb2 3c38 fcb1 11b3 c4b2 d1b1 4fb1
000000e0: a0b0 1dab 64a9 1cac 1ab5 09ae fcaa 58b1
000000f0: a1a3 16aa 9697 6fab bfad 1fb8 f6b4 7aad
00000100: d62c 3634 4eac 24ac bdad 2b37 a1b3 f231
00000110: 4134 a9a9 f9a3 91ac 6036 9b32 dd24 ba31
00000120: ae33 142c 85a9 1422 53af 32b2 91b0 0fad
00000130: 60af cdac d8b1 0aa9 8a30 4720 702c 6230
00000140: 40b4 57a1 38b4 a32e 7d33 2d36 68b1 862c
00000150: e1ab 1234 912d 3e38 4132 4234 1435 be34
00000160: da28 1ead f214 cb22 6537 7232 992a 4ba9
00000170: 34a8 801b baa9 6d29 7f28 0cb8 6f35 822e
00000180: 96ac ffb2 7aa8 8a27 d726 fab6 c333 78b4
00000190: 6bb5 802f 65ac fc31 c2b4 6ab4 2e21 f7ae
000001a0: 4daf 572d fca8 faa9 5f2c 0333 ad21 222b
000001b0: 642f b2ab 5d2b 4432 27ac 4130 6baf 16b4
000001c0: 1234 8e2c c430 25af 68b2 aab5 1833 bea2
000001d0: 4529 2ab3 ddad 5eb7 a4b4 53b2 73b2 72b4
000001e0: a4ac 6dab c5a9 06b0 d6b5 45b0 dead cdab
000001f0: 11b0 c6a4 11ac 83a8 cdad 7038 6db7 0e29

ClassHead.1.conv1x1.bias f2 [4]
0.591 -0.5024 0.55 -0.525
00000000: ba38 05b8 6638 33b8

ClassHead.2.conv1x1.weight f2 [4, 64, 1, 1]
0.4001 0.1421 0.1409 -0.2236 0.0935 -0.3232 0.2952 -0.01514
0.2174 0.2211 0.1821 0.0085 0.09247 0.05927 0.12115 -0.0278
0.06287 0.08014 0.1711 0.1951 -0.03452 -0.03976 -0.01013 0.01527
-0.1965 0.2595 0.2047 0.2668 -0.09467 0.3965 -0.04672 -0.02463
0.2559 0.01859 0.188 -0.0672 -0.152 0.1941 0.2307 -0.531
0.2246 0.3496 0.05237 -0.0506 0.2347 0.1478 -0.05258 0.1667
0.3699 0.0439 -0.05978 0.3135 -0.0349 -0.1116 0.1138 0.1981
-0.281 0.2754 -0.0731 0.2185 0.284 -0.05203 0.3203 -0.01395
-0.3901 -0.1356 -0.0473 0.2255 -0.04947 0.3245 -0.1646 0.04114
-0.2299 -0.2463 -0.05222 -0.01793 -0.2048 -0.0816 -0.1076 0.1526
-0.1913 -0.04453 -0.183 -0.1292 -0.04053 0.013885 0.01753 -0.0264
0.2207 -0.2014 -0.2473 -0.2137 0.1648 -0.3276 0.0946 -0.02765
-0.3157 0.0686 -0.242 0.1517 0.2494 -0.161 -0.3123 0.5146
-0.1694 -0.382 -0.1186 0.1271 -0.2136 -0.2421 0.0504 -0.0804
-0.4412 -0.09546 -0.0449 -0.2864 0.05853 0.066 -0.1547 -0.1735
0.1895 -0.3374 0.07166 -0.3389 -0.2786 -0.01631 -0.2524 0.05795
0.155 0.0946 0.1425 -0.2234 0.1237 -0.0506 0.282 0.002129
-0.3577 0.1493 0.2883 0.0698 0.03625 0.002405 -0.1447 0.11334
0.12286 0.2644 0.1462 0.1438 -0.03308 -0.0781 0.1534 0.1267
0.1068 0.2052 0.0628 0.1621 -0.08685 0.1495 -0.10016 0.1086
0.2522 0.4167 0.3892 0.2393 0.05695 0.2096 -0.365 -0.2603
0.1455 0.1525 0.1501 0.1731 0.3513 0.2467 -0.05048 0.001112
-0.2979 -0.0969 0.367 0.284 0.2598 -0.05246 -0.10254 0.2108
0.652 -0.2245 0.2852 0.082 -0.1438 -0.155 0.2805 -0.1951
-0.187 -0.1777 -0.07697 0.1306 -0.1045 0.01374 -0.3076 0.0676
0.3083 -0.2241 -0.291 0.00518 -0.1368 -0.02945 0.2456 -0.1236
-0.0948 -0.141 -0.2468 -0.104 -0.01109 0.003548 -0.197 -0.167
-0.04996 -0.2452 0.0192 -0.1434 0.1199 -0.1664 0.1501 -0.12213
-0.2427 -0.3777 -0.2397 -0.2465 0.1019 -0.2043 0.269 0.309
-0.0886 -0.1154 0.00897 -0.2305 -0.3027 -0.3145 0.0319 0.0782
0.1895 0.1442 -0.3198 -0.2854 -0.2437 0.07733 0.05002 -0.2812
-0.6772 0.2327 -0.219 -0.2284 0.08154 0.07434 -0.1539 0.1868
00000000: 6736 8c30 8230 28b3 fc2d 2cb5 b934 c0a3
00000010: f532 1333 d431 5a20 eb2d 962b c12f 1ea7
00000020: 062c 212d 7a31 3e32 6ba8 17a9 30a1 d123
00000030: 4ab2 2734 8d32 4534 0fae 5836 fba9 4ea6
00000040: 1834 c224 0432 4dac ddb0 3632 6233 3fb8
00000050: 3033 9835 b42a 7aaa 8333 bb30 bbaa 5631
00000060: eb35 9f29 a7ab 0435 78a8 24af 482f 5732
00000070: 7fb4 6834 aeac fe32 8b34 a9aa 2035 24a3
00000080: 3eb6 57b0 0eaa 3733 55aa 3135 44b1 4429
00000090: 5bb3 e2b3 afaa 97a4 8eb2 39ad e3ae e230
000000a0: 1fb2 b3a9 dbb1 22b0 30a9 1c23 7d24 c2a6
000000b0: 1033 72b2 eab3 d7b2 4631 3eb5 0e2e 14a7
000000c0: 0db5 642c beb3 db30 fb33 27b1 ffb4 1e38
000000d0: 6cb1 1db6 97af 1130 d6b2 bfb3 742a 25ad
000000e0: 0fb7 1cae bfa9 95b4 7e2b 392c f3b0 8db1
000000f0: 1032 66b5 962c 6cb5 75b4 2da4 0ab4 6b2b
00000100: f630 0e2e 8f30 26b3 eb2f 7aaa 8334 5c18
00000110: b9b5 c730 9d34 782c a428 ed18 a1b0 412f
00000120: dd2f 3b34 ae30 9a30 3ca8 00ad e930 0e30
00000130: d62e 9132 052c 3031 8fad c930 69ae f32e
00000140: 0934 ab36 3a36 a833 4a2b b532 d7b5 2ab4
00000150: a830 e130 ce30 8a31 9f35 e533 76aa 8e14
00000160: c4b4 34ae df35 8b34 2834 b7aa 90ae bf32
00000170: 3739 2fb3 9034 3f2d 9ab0 f6b0 7d34 3eb2
00000180: fcb1 b0b1 edac 2e30 b0ae 0923 ecb4 542c
00000190: ef34 2cb3 a8b4 4e1d 61b0 8aa7 dc33 e9af
000001a0: 11ae 83b0 e6b3 a8ae aea1 441b 4eb2 58b1
000001b0: 65aa d9b3 ea24 97b0 ac2f 53b1 ce30 d1af
000001c0: c4b3 0bb6 acb3 e3b3 862e 8ab2 4e34 f234
000001d0: acad 63af 9820 60b3 d8b4 08b5 1528 012d
000001e0: 1032 9d30 1eb5 91b4 ccb3 f32c 672a 80b4
000001f0: 6bb9 7233 02b3 4fb3 382d c22c edb0 fa31

ClassHead.2.conv1x1.bias f2 [4]
0.383 -0.4373 0.4004 -0.4993
00000000: 2136 ffb6 6836 fdb7

BboxHead.0.conv1x1.weight f2 [8, 64, 1, 1]
-0.02556 -0.09906 -0.0756 0.03174 -0.1512 -0.03119 0.02467 -0.02293
0.02335 -0.07526 -0.0344 0.1399 -0.0442 -0.01955 -0.1611 -0.0637
0.01817 -0.001208 0.01214 0.4246 -0.02199 -0.04904 -0.1377 -0.1445
0.2576 -0.1924 0.099 0.02669 -0.0001148 0.03854 -0.003633 -0.0757
0.01531 -0.0733 -0.03387 0.01439 -0.0317 0.006763 -0.3687 0.1112
-0.04617 0.006866 0.0975 0.04642 -0.05316 -0.00633 0.2026 -0.05832
0.0645 -0.04602 -0.0216 0.03546 -0.08344 0.06476 -0.013084 -0.07764
0.04617 0.03876 0.039 -0.01877 0.02838 0.08887 -0.02275 0.09454
0.0883 -0.3867 0.00967 -0.01587 0.1183 -0.06168 0.3994 -0.1398
-0.04703 -0.0842 0.2247 -0.1469 -0.1669 -0.063 0.1 0.004517
-0.0523 -0.00994 -0.00692 -0.0247 0.05988 0.0623 0.1421 -0.02505
0.02531 0.06506 0.11426 -0.1984 0.3315 0.281 -0.1335 -0.1526
0.06165 0.03918 -0.2063 0.0566 -0.06915 -0.0444 0.04517 -0.01313
-0.02307 -0.01168 0.11755 -0.01941 0.09937 -0.3042 0.007904 -0.09503
0.03537 0.2192 0.1802 0.1838 -0.1704 -0.3208 -0.0937 0.0228
0.03442 0.05136 -0.02594 0.01539 0.04382 -0.01131 -0.0333 -0.01061
0.1702 -0.0282 0.0881 -0.01932 0.01936 -0.02904 0.04657 -0.01393
-0.483 -0.0204 -0.2133 0.1151 0.1388 -0.04413 -0.1501 0.0814
-0.0706 0.0807 -0.0655 -0.09863 0.1887 -0.073 0.1602 -0.2451
0.2507 0.1564 -0.012695 0.1824 0.1035 0.12274 -0.2091 0.09814
-0.0644 -0.03677 -0.0804 -0.0698 0.01678 0.00929 0.0646 0.0449
-0.09906 -0.0178 -0.01518 0.0471 -0.012474 0.05432 0.013535 0.01776
-0.0424 -0.1135 -0.003193 0.03387 0.05243 0.05875 0.05276 0.0326
0.005726 -0.3252 -0.0819 0.006283 0.002645 0.03543 0.04614 -0.0863
0.0983 -0.04947 0.0366 0.0339 0.0002608 -0.1398 0.0593 0.1195
-0.5264 0.06055 -0.2491 0.0904 -0.00596 0.003069 -0.02335 0.010735
-0.05722 0.006638 0.0844 -0.05148 0.1156 0.03598 0.2146 0.010925
0.1405 0.0146 -0.00798 0.4565 0.2876 -0.1113 0.1711 0.2026
-0.02484 0.03555 -0.1322 -0.0511 0.06366 0.077 0.0565 0.0177
-0.04453 0.0001414 0.1187 -0.00244 -0.0523 0.03433 0.02283 0.0745
-0.01845 -0.0897 0.0505 0.0698 0.06415 0.0736 0.03772 -0.02686
0.0008144 -0.2452 -0.0866 -0.0678 -0.006763 0.01877 0.01175 -0.07935
00000000: 8ba6 57ae d7ac 1028 d7b0 fca7 5126 dfa5
00000010: fa25 d1ac 67a8 7a30 a8a9 01a5 28b1 14ac
00000020: a724 f394 3722 cb36 a1a5 47aa 68b0 a0b0
00000030: 1f34 28b2 562e d526 8687 ef28 719b d8ac
00000040: d723 b1ac 56a8 5e23 0fa8 ed1e e6b5 1e2f
00000050: e9a9 081f 3d2e f129 ceaa 7b9e 7c32 77ab
00000060: 212c e4a9 88a5 8a28 57ad 252c b3a2 f8ac
00000070: e929 f628 fe28 cea4 4427 b02d d3a5 0d2e
00000080: a72d 30b6 f320 10a4 922f e5ab 6436 79b0
00000090: 05aa 64ad 3133 b3b0 57b1 08ac 662e a01c
000000a0: b2aa 17a1 169f 53a6 aa2b f92b 8c30 6aa6
000000b0: 7b26 2a2c 502f 59b2 4e35 7f34 46b0 e2b0
000000c0: e42b 0429 9ab2 3f2b 6dac afa9 c829 b9a2
000000d0: e8a5 fba1 862f f8a4 5c2e deb4 0c20 15ae
000000e0: 8728 0433 c431 e231 74b1 22b5 ffad d625
000000f0: 6828 932a a4a6 e123 9c29 caa1 43a8 6fa1
00000100: 7231 38a7 a32d f2a4 f524 6fa7 f629 22a3
00000110: bab7 39a5 d3b2 5e2f 7130 a6a9 ceb0 362d
00000120: 85ac 2a2d 31ac 50ae 0a32 acac 2031 d8b3
00000130: 0334 0131 80a2 d631 a02e db2f b1b2 482e
00000140: 1fac b5a8 25ad 78ac 4c24 c220 222c bf29
00000150: 57ae 8fa4 c6a3 072a 63a2 f42a ee22 8c24
00000160: 6da9 44af 8a9a 5628 b62a 852b c12a 2c28
00000170: dd1d 34b5 3ead 6f1e 6b19 8928 e829 86ad
00000180: 4b2e 55aa af28 5728 460c 79b0 972b a62f
00000190: 36b8 c02b f9b3 c92d 1a9e 491a faa5 7f21
000001a0: 53ab cc1e 672d 97aa 662f 9b28 de32 9821
000001b0: 7f30 7a23 16a0 4e37 9a34 20af 7a31 7c32
000001c0: 5ca6 8d28 3bb0 8aaa 132c ee2c 3b2b 8824
000001d0: b3a9 a208 992f ff98 b2aa 6528 d825 c52c
000001e0: b9a4 bead 772a 782c 1b2c b62c d428 e0a6
000001f0: ac12 d9b3 8bad 57ac ed9e ce24 0422 14ad

BboxHead.0.conv1x1.bias f2 [8]
0.05823 -0.01616 -0.02475 0.1202 -0.08765 0.008156 -0.304 -0.0454
00000000: 742b 23a4 56a6 b12f 9cad 2d20 ddb4 d0a9

BboxHead.1.conv1x1.weight f2 [8, 64, 1, 1]
0.00782 -0.07385 -0.06238 -0.0268 -0.10596 0.001476 0.2844 -0.1055
0.01604 0.1437 0.0467 -0.4246 0.02867 -0.01149 0.2296 0.01895
-0.10187 0.00954 0.02509 -0.01596 -0.0383 0.2081 0.00088 0.11237
-0.2913 -0.2152 -0.014145 0.1171 0.1886 0.01807 -0.08356 0.1938
-0.12396 0.1725 -0.006695 0.0438 -0.005474 -0.0002892 -0.1226 0.02231
0.1321 0.01584 0.06647 -0.02509 0.03296 0.3323 -0.2334 -0.06793
-0.0002002 0.1735 -0.1245 -0.2336 0.01634 -0.0548 0.0356 0.04282
0.10455 0.2345 -0.1134 -0.0377 -0.01936 -0.004578 0.0522 -0.3416
0.2032 0.002495 -0.1635 0.02605 -0.01926 -0.02077 0.1403 0.02048
0.02437 0.201 -0.00729 -0.1044 0.06494 -0.02957 0.002092 -0.1263
0.3193 -0.010155 -0.0374 0.3547 0.01973 -0.2715 0.01941 -0.04434
-0.0362 0.03064 -0.0554 -0.341 -0.01857 0.02641 -0.3154 0.02182
-0.1647 -0.0442 0.2952 -0.2893 0.01807 -0.0519 0.1691 -0.0373
-0.3298 0.007812 -0.0633 0.02284 0.0834 0.014114 0.09125 -0.019
-0.1074 -0.005665 0.0657 -0.0292 -0.1819 0.269 -0.1652 0.1428
-0.0639 0.08295 0.0662 -0.04895 0.1539 0.0813 0.0671 -0.1621
0.0773 -0.2384 -0.03876 0.04565 0.0791 -0.0645 0.08527 -0.0945
0.0102 0.1608 0.10205 0.2288 -0.01776 0.02446 -0.1431 -0.1088
-0.084 -0.0331 0.01022 0.02277 0.1113 0.2869 -0.4111 0.0645
0.01596 -0.0975 0.01425 0.05518 -0.2 -0.3418 -0.1963 -0.1737
0.1829 -0.0864 0.11096 -0.012726 -0.0659 -0.014175 0.0929 0.12103
0.1087 -0.011185 -0.0537 -0.0416 0.2305 0.00733 -0.07745 0.05328
0.03317 0.1099 0.0943 -0.1151 -0.0941 -0.05795 -0.0722 -0.005634
0.03494 0.0674 0.03015 -0.0551 0.01617 0.05545 -0.1833 -0.0717
-0.0186 -0.05728 -0.1594 0.1345 0.0906 -0.005966 0.2129 0.01689
0.02267 0.1222 -0.00908 0.08655 0.0393 0.03406 -0.01938 -0.4585
-0.0785 -0.03806 0.03494 -0.0979 -0.2466 0.043 -0.06415 -0.01009
-0.00891 -0.02435 -0.01265 0.254 -0.1137 0.3064 -0.06586 -0.10815
0.2404 -0.000427 0.1606 -0.1295 -0.00935 0.05676 0.1519 0.01363
0.11487 0.07275 0.1002 -0.0434 0.3428 -0.0327 -0.08875 0.1053
0.0401 0.09436 0.04953 -0.0781 -0.0665 0.02783 -0.0613 0.05435
0.08685 -0.0241 0.02472 0.06604 0.1337 0.0867 -0.1716 -0.02452
00000000: 0120 baac fcab dca6 c8ae 0c16 8d34 c1ae
00000010: 1b24 9930 fa29 cbb6 5727 e2a1 5933 da24
00000020: 85ae e220 6c26 16a4 e7a8 a932 3513 312f
00000030: a9b4 e3b2 3ea3 7f2f 0932 a024 59ad 3432
00000040: efaf 8531 db9e 9b29 9b9d bd8c d9af b625
00000050: 3a30 0e24 412c 6ca6 3828 5135 78b3 59ac
00000060: 8f8a 8d31 f8af 7ab3 2f24 04ab 8f28 7b29
00000070: b12e 8133 42af d3a8 f5a4 b09c ae2a 77b5
00000080: 8132 1c19 3bb1 ab26 eea4 51a5 7d30 3e25
00000090: 3d26 6f32 779f aeae 282c 92a7 4918 0bb0
000000a0: 1c35 33a1 caa8 ad35 0d25 58b4 f824 ada9
000000b0: a2a8 d827 17ab 75b5 c1a4 c326 0cb5 9625
000000c0: 45b1 a8a9 b934 a1b4 a024 a5aa 6931 c6a8
000000d0: 47b5 0020 0dac d925 562d 3a23 d72d dda4
000000e0: e0ae cd9d 342c 7aa7 d2b1 4e34 49b1 9230
000000f0: 17ac 4f2d 3d2c 44aa ed30 342d 4b2c 30b1
00000100: f22c a1b3 f6a8 d829 102d 21ac 752d 0cae
00000110: 3921 2531 882e 5233 8ca4 4326 94b0 f7ae
00000120: 60ad 3da8 3c21 d425 202f 9734 94b6 212c
00000130: 1624 3dae 4c23 102b 66b2 78b5 48b2 8fb1
00000140: da31 88ad 1a2f 84a2 38ac 42a3 f22d bf2f
00000150: f52e baa1 e0aa 53a9 6033 821f f5ac d22a
00000160: 3f28 092f 092e 5eaf 06ae 6bab 9fac c59d
00000170: 7928 502c b827 0eab 2424 192b deb1 97ac
00000180: c3a4 55ab 1ab1 4e30 cc2d 1c9e d032 5324
00000190: ce25 d22f a6a0 8a2d 0829 5c28 f6a4 56b7
000001a0: 06ad dfa8 7928 44ae e4b3 8129 1bac 2ba1
000001b0: 90a0 3ca6 7aa2 1034 47af e734 37ac ecae
000001c0: b133 ff8e 2431 25b0 caa0 442b dc30 fb22
000001d0: 5a2f a82c 6a2e 8ea9 7c35 30a8 aead bd2e
000001e0: 2229 0a2e 572a 00ad 42ac 2027 d9ab f52a
000001f0: 8f2d 2ba6 5426 3a2c 4730 8c2d 7eb1 47a6

BboxHead.1.conv1x1.bias f2 [8]
-0.029 -0.0815 -0.195 -0.0447 -0.07715 -0.2458 -0.3354 -0.06085
00000000: 6da7 37ad 3db2 b9a9 f0ac deb3 5eb5 caab

BboxHead.2.conv1x1.weight f2 [8, 64, 1, 1]
-0.0146 0.005226 0.03455 -0.04147 0.0626 -0.1085 -0.02086 -0.00798
-0.006634 0.01895 0.0735 -0.00901 0.02075 0.01001 0.01155 -0.05582
-0.09235 0.1858 -0.02705 0.0378 -0.002295 0.02277 0.0728 -0.06168
-0.000703 -0.00059 0.01859 0.0741 -0.01531 -0.01129 -0.02724 0.003143
-0.0344 0.01294 -0.01761 0.4175 -0.1917 0.01096 0.336 0.04163
0.02348 -0.06104 0.0568 0.2175 0.0359 -0.05905 -0.2035 -0.3047
-0.4314 0.3271 -0.0696 -0.03775 0.11945 0.0645 0.097 0.001624
-0.0945 0.1211 -0.2178 0.083 0.0866 -0.06934 -0.0544 -0.1278
0.02414 -0.00924 -0.06476 -0.03436 0.01407 -0.03065 -0.05154 -0.00934
-0.01541 0.0536 -0.05078 0.223 -0.0993 0.0007787 -0.07764 -0.04208
0.01305 -5.05e-05 -0.0818 0.11865 0.1095 -0.05304 -0.2505 -0.07385
0.02705 -0.01732 -0.000725 0.02216 -0.006683 -0.05515 0.02234 0.1705
0.03183 -0.08466 0.1432 0.1562 0.01308 0.03354 -0.01955 -0.08563
-0.07587 -0.02495 -0.01326 0.1026 -0.001192 -0.0987 0.0673 -0.0962
0.04672 -0.0917 0.1692 -0.0606 -0.013084 0.0774 0.2598 -0.02939
0.04782 -0.0823 -0.06128 -0.004726 0.0534 -0.5786 0.007065 0.4778
-0.03336 -0.0683 -0.00794 0.1467 -0.2389 0.01877 -0.0635 0.143
0.01035 0.02701 0.016 0.1323 -0.1295 0.07513 0.03662 -0.253
-0.1951 -0.2317 -0.06247 0.01784 0.1433 0.0898 0.1181 0.01328
-0.1037 -0.1515 -0.1931 -0.1009 0.1304 0.0003464 -0.0564 0.03094
-0.00096 -0.03084 -0.1772 -0.05017 -0.06247 -0.0849 0.2053 0.09717
-0.00842 -0.185 0.01875 -0.08954 -0.2346 -0.1453 0.0793 0.0778
0.2122 0.1016 -0.008415 -0.0921 -0.1558 -0.002207 0.05634 0.02638
-0.2161 0.2236 -0.09875 -0.2133 0.04712 0.02278 -0.1757 0.03317
-0.0662 0.02274 0.0706 0.011734 -0.0116 -0.007057 -0.0292 -0.0822
0.1904 -0.039 -0.03217 -0.0887 0.04446 -0.06647 0.09827 0.1736
-0.04742 0.02832 -0.03403 -0.1462 -0.0838 -0.03384 -0.05206 0.1301
0.05615 -0.0968 -0.4192 -0.0829 0.01065 0.1095 0.0418 0.05942
-0.02216 -0.07227 -0.02774 -0.0899 0.1373 -0.1476 0.1267 0.259
-0.09607 -0.111 -0.01267 -0.02519 0.05347 -0.10315 0.1599 0.069
0.06647 -0.07947 0.0766 -0.11755 -0.0333 0.1613 0.269 0.01639
-0.2191 0.1884 -0.2317 -0.188 0.0597 0.1835 -0.04517 0.08044
00000000: 7aa3 5a1d 6c28 4fa9 022c f2ae 57a5 16a0
00000010: cb9e da24 b42c 9da0 5025 2021 ea21 25ab
00000020: e9ad f231 eda6 d728 b398 d425 a92c e5ab
00000030: c291 d590 c224 be2c d7a3 c8a1 f9a6 701a
00000040: 67a8 a022 82a4 ae36 22b2 9d21 6035 5429
00000050: 0326 d0ab 452b f632 9828 8fab 83b2 e0b4
00000060: e7b6 3c35 74ac d5a8 a52f 212c 352e a716
00000070: 0cae c02f f8b2 502d 8b2d 70ac f7aa 17b0
00000080: 2e26 bba0 25ac 66a8 3423 d9a7 99aa c8a0
00000090: e4a3 dc2a 80aa 2333 5bae 6112 f8ac 63a9
000000a0: ae22 4f83 3cad 982f 022f caaa 02b4 baac
000000b0: ed26 6fa4 f091 ac25 d89e 0fab b825 7531
000000c0: 1328 6bad 9530 0031 b222 4b28 01a5 7bad
000000d0: dbac 63a6 caa2 912e e294 51ae 4f2c 28ae
000000e0: fb29 dead 6a31 c2ab b3a2 f42c 2834 86a7
000000f0: 1f2a 44ad d8ab d79c d62a a1b8 3c1f a537
00000100: 45a8 5fac 11a0 b230 a5b3 ce24 10ac 9330
00000110: 4d21 ea26 1924 3c30 25b0 cf2c b028 0cb4
00000120: 3eb2 6ab3 ffab 9124 9630 bf2d 8f2f cd22
00000130: a3ae d9b0 2eb2 75ae 2c30 ad0d 38ab ec27
00000140: dd93 e5a7 acb1 6caa ffab 6fad 9232 382e
00000150: 50a0 ecb1 cd24 bbad 82b3 a6b0 132d fb2c
00000160: ca32 812e 4fa0 e5ad fcb0 8598 362b c126
00000170: eab2 2833 52ae d3b2 082a d525 9fb1 3f28
00000180: 3dac d225 852c 0222 f0a1 3a9f 7aa7 43ad
00000190: 1832 fea8 1ea8 adad b129 41ac 4a2e 8e31
000001a0: 12aa 4027 5ba8 aeb0 5dad 55a8 aaaa 2a30
000001b0: 302b 32ae b5b6 4ead 7421 022f 5a29 9b2b
000001c0: aca5 a0ac 1aa7 c1ad 6530 b9b0 0e30 2534
000001d0: 26ae 1baf 7da2 73a6 d82a 9aae 1e31 6a2c
000001e0: 412c 16ad e72c 86af 43a8 2931 4e34 3224
000001f0: 03b3 0732 6ab3 04b2 a42b df31 c8a9 262d

BboxHead.2.conv1x1.bias f2 [8]
-0.0366 -0.0784 -0.0753 -0.0508 -0.0806 -0.1079 -0.3735 -0.3079
00000000: afa8 05ad d2ac 81aa 29ad e8ae fab5 edb4

LandmarkHead.0.conv1x1.weight f2 [20, 64, 1, 1]
-0.08936 -0.0375 -0.0944 -0.05957 0.0158 0.04245 0.05673 0.04498
-0.005714 0.0401 -0.029 -0.06287 0.0613 0.02042 -0.0758 0.0373
-0.0109 -0.2104 0.07355 0.2057 0.2224 0.03635 0.1265 0.1183
-0.0538 -0.1978 0.0949 -0.1304 -0.1316 -0.3542 -0.05267 -0.34
-0.01723 -0.0448 -0.01552 -0.02739 -0.03845 -0.0336 -0.529 0.303
0.1109 -0.0795 -0.03787 -0.0825 -0.02328 -0.1904 0.4329 -0.0791
-0.04184 -0.01481 -0.05148 0.0311 -0.1576 -0.014084 0.01088 -0.068
-0.1005 -0.0637 0.02663 -0.06058 -0.005817 -0.372 -0.08234 0.02194
-0.0411 -0.2869 -0.0897 0.0362 -0.014854 0.03387 0.378 -0.1327
0.0715 -0.02383 0.0522 -0.047 -0.0831 -0.03915 -0.05957 -0.01598
-0.04623 0.2688 -0.05466 -0.05704 -0.0505 0.06854 -0.184 0.0281
-0.2002 -0.0711 -0.12384 -0.2346 0.09393 -0.1798 -0.1908 -0.0748
0.03394 -0.00882 -0.01458 0.012085 -0.04926 0.04047 0.01303 -0.03702
-0.0133 -0.02045 0.004585 -0.05325 0.02206 -0.1418 -0.012695 -0.04117
0.0056 0.0778 0.435 0.05228 -0.354 -0.6147 -0.05103 -0.000987
-0.04282 -0.02669 0.1328 0.01598 -0.004765 -0.092 -0.007114 0.0905
0.05267 -0.05753 -0.01138 0.09607 -0.010895 -0.0426 0.0413 0.0532
-0.00457 0.00704 -0.001662 0.0708 0.212 0.0632 0.06143 0.001699
-0.002798 -0.1475 -0.549 0.2207 0.10626 -0.02097 -0.06223 0.01933
0.1544 0.4749 0.1758 0.2292 0.10004 0.0722 0.04 -0.061
0.02744 0.052 0.003263 -0.0777 -0.0399 0.02226 -0.3538 0.2722
-0.00889 -0.0523 0.2408 -0.01646 -0.02292 -0.004417 0.3997 0.006382
-0.08044 -0.03262 -0.01395 0.2957 -0.09064 0.185 -0.00353 0.03812
0.1536 -0.0316 -0.03262 -0.01265 -0.02374 -0.12335 -0.0603 0.08093
-0.04074 -0.3215 0.00527 -0.04987 -0.01226 0.05542 0.368 -0.01689
0.0854 -0.02281 0.08685 -0.0931 0.1044 0.01424 -0.04108 -0.02124
-0.007225 -9.304e-05 0.02232 -0.0283 0.0721 0.023 -0.2698 0.0198
-0.1433 -0.11993 -0.10815 -0.0993 0.121 -0.1388 -0.2595 -0.2522
0.01543 -0.03592 0.002453 0.05917 -0.02312 -0.0644 0.005478 -0.06033
-0.05273 -0.013664 -0.02502 0.01675 -0.08154 -0.1462 -0.05396 -0.11523
-0.005512 0.0823 0.4185 0.04205 -0.357 -0.6064 0.0423 -0.00785
-0.01356 0.011185 0.1069 -0.0457 -0.00919 -0.05417 0.04465 0.1278
00000000: b8ad cda8 0bae a0ab 0b24 6f29 432b c229
00000010: da9d 2229 6da7 06ac d92b 3a25 daac c628
00000020: 95a1 bcb2 b52c 9532 1e33 a728 0c30 922f
00000030: e3aa 54b2 132e 2cb0 36b0 abb5 beaa 71b5
00000040: 69a4 bca9 f2a3 03a7 eca8 4da8 3bb8 d934
00000050: 192f 17ad d9a8 48ad f6a5 18b2 ed36 10ad
00000060: 5ba9 95a3 97aa f627 0bb1 36a3 9221 5aac
00000070: 6fae 14ac d126 c1ab f59d f4b5 45ad 9e25
00000080: 43a9 97b4 bead a228 9ba3 5628 0c36 3fb0
00000090: 932c 1aa6 ae2a 04aa 52ad 03a9 a0ab 17a4
000000a0: eba9 4d34 ffaa 4dab 77aa 632c e3b1 3227
000000b0: 68b2 8dac edaf 82b3 032e c1b1 1bb2 caac
000000c0: 5828 84a0 77a3 3022 4eaa 2e29 ac22 bda8
000000d0: cfa2 3ca5 b21c d1aa a625 8ab0 80a2 45a9
000000e0: bc1d fb2c f636 b12a aab5 ebb8 88aa 0b94
000000f0: 7ba9 d5a6 4030 1724 e19c e3ad 499f cb2d
00000100: be2a 5dab d4a1 262e 94a1 74a9 4929 cf2a
00000110: ae9c 351f cf96 882c c932 0b2c dd2b f616
00000120: bb99 b8b0 64b8 1033 cd2e 5ea5 f7ab f324
00000130: f130 9937 a031 5633 672e 9f2c 1f29 cfab
00000140: 0627 a82a af1a f9ac 1ba9 b325 a9b5 5b34
00000150: 8da0 b2aa b533 37a4 dea5 869c 6536 891e
00000160: 26ad 2da8 24a3 bb34 cdad ec31 3b9b e128
00000170: ea30 0ba8 2da8 7aa2 14a6 e5af b8ab 2e2d
00000180: 37a9 25b5 651d 62aa 47a2 182b e335 53a4
00000190: 772d d7a5 8f2d f5ad ae2e 4a23 42a9 70a5
000001a0: 669f 1986 b725 3fa7 9d2c e325 51b4 1225
000001b0: 96b0 adaf ecae 5bae be2f 71b0 27b4 09b4
000001c0: e623 99a8 0619 932b eba5 1fac 9c1d b9ab
000001d0: c0aa ffa2 68a6 4a24 38ad aeb0 e8aa 60af
000001e0: a59d 442d b236 6229 b6b5 dab8 6a29 05a0
000001f0: f1a2 ba21 d72e d9a9 b5a0 efaa b729 1730

LandmarkHead.0.conv1x1.bias f2 [20]
-0.012436 -0.09845 0.0457 -0.1587 0.10376 0.06635 -0.032 0.1282
0.1127 0.1816 -0.2078 -0.1981 0.1898 -0.223 0.08746 -0.03647
-0.1053 0.3086 0.1101 0.415
00000000: 5ea2 4dae d929 14b1 a42e 3f2c 19a8 1a30
00000010: 362f d031 a6b2 57b2 1332 23b3 992d aba8
00000020: bdae f034 0c2f a436

LandmarkHead.1.conv1x1.weight f2 [20, 64, 1, 1]
-0.1338 0.00823 0.006386 0.5615 -0.1332 0.025 -0.2869 0.06885
-0.0797 0.0625 -0.1292 -0.3555 -0.1582 0.0396 0.1172 -0.02722
-0.04202 -0.3176 0.2559 0.02306 -0.1533 -0.2651 -0.02235 0.1656
-0.0904 0.1747 -0.0329 -0.07764 -0.01646 -0.0585 -0.0911 0.1129
-0.1385 0.292 -0.008224 -0.007965 0.01665 -0.01487 -0.1926 0.2288
-0.06116 -0.05728 0.07056 -0.0981 -0.0914 -0.011185 -0.1512 -0.1279
0.395 0.1779 -0.4453 -0.0622 0.003824 0.01002 -0.02324 -0.0646
-0.1827 0.3296 -0.4082 0.02196 0.0485 -0.01901 -0.01022 -0.2915
-0.1832 0.012405 0.01633 -0.1716 -0.0311 0.00902 -0.1782 -0.0534
-0.01921 0.261 -0.0909 -0.1475 -0.0751 -0.0894 0.0275 0.07214
0.1897 0.3596 -0.2118 -0.2465 -0.2169 0.09766 -0.0221 -0.2076
0.01377 -0.06064 0.1439 -0.2325 0.04834 -0.1501 -0.339 -0.008766
-0.2189 -0.03412 0.396 -0.1041 -0.0754 0.01749 -0.1838 0.2654
-0.506 0.0054 -0.0518 -0.00458 0.0284 0.004917 0.2339 -0.3286
-0.1389 -0.2583 0.03677 0.027 -0.2069 0.2573 0.03748 0.1555
-0.237 0.2166 0.045 -0.25 0.284 -0.10455 0.0773 -0.1738
-0.00247 0.003023 0.01714 0.013245 -0.3203 -0.02425 0.1542 0.12213
0.03 0.03836 -0.01046 0.2487 0.10724 0.0516 -0.03256 -0.006596
-0.04514 -0.4236 -0.383 0.078 0.2078 0.10034 -0.04993 0.5176
0.1155 0.011604 0.3357 0.2415 -0.01247 0.1643 -0.0637 0.04242
-0.004566 0.2389 0.0414 0.0641 0.09283 0.00513 0.02737 0.0979
0.07184 0.001762 -0.01125 0.01854 0.1495 0.0413 -0.11896 0.07495
0.3142 0.3083 -0.429 -0.1714 0.002556 0.0725 -0.02989 -0.09546
-0.1716 0.3782 -0.326 -0.00997 0.1323 0.00971 0.0287 -0.273
-0.158 -0.00988 -0.00802 -0.0825 -0.2194 -0.05304 -0.1351 -0.00978
-0.03452 0.2537 -0.1562 0.02605 0.003937 -0.06726 -0.0793 0.13
0.1667 -0.12103 0.1345 -0.4238 0.0083 -0.0719 -0.04865 0.3137
0.05234 0.1808 -0.3027 -0.1796 0.00568 -0.1117 -0.3284 -0.01389
-0.2235 -0.0757 0.371 -0.1003 0.03394 0.05328 -0.1978 0.01721
-0.4673 0.09686 -0.0499 -0.0116 -0.02783 0.01456 0.2283 -0.387
-0.1868 -0.2205 0.04303 0.03885 -0.1876 0.2798 0.004612 0.1821
-0.1943 0.1841 0.1146 -0.287 0.287 -0.07196 0.076 -0.2144
00000000: 48b0 3720 8a1e 7e38 43b0 6626 97b4 682c
00000010: 1aad 002c 22b0 b0b5 10b1 1229 802f f8a6
00000020: 61a9 15b5 1834 e725 e8b0 3eb4 b9a5 4d31
00000030: c9ad 9731 36a8 f8ac 37a4 7dab d5ad 3a2f
00000040: 6fb0 ac34 36a0 14a0 4324 9da3 2ab2 5233
00000050: d4ab 55ab 842c 47ae d9ad baa1 d7b0 18b0
00000060: 5236 b131 20b7 f6ab d51b 2121 f3a5 22ac
00000070: d9b1 4635 88b6 9f25 352a dea4 3ca1 aab4
00000080: ddb1 5a22 2e24 7eb1 f6a7 9e20 b4b1 d6aa
00000090: eba4 2d34 d1ad b8b0 ceac b9ad 0a27 9e2c
000000a0: 1232 c135 c7b2 e3b3 f1b2 402e a8a5 a5b2
000000b0: 0d23 c3ab 9b30 71b3 302a ceb0 6db5 7da0
000000c0: 01b3 5ea8 5636 aaae d3ac 7a24 e2b1 3f34
000000d0: 0cb8 881d a1aa b19c 4527 091d 7c33 42b5
000000e0: 72b0 22b4 b528 e926 9fb2 1e34 cc28 fa30
000000f0: 96b3 ee32 c329 00b4 8b34 b1ae f22c 90b1
00000100: 0f99 311a 6324 c822 20b5 35a6 ef30 d12f
00000110: ae27 e928 5ba1 f533 dd2e 9b2a 2ba8 c19e
00000120: c7a9 c7b6 21b6 fe2c a632 6c2e 64aa 2438
00000130: 642f f121 5f35 ba33 62a2 4231 14ac 6e29
00000140: ad9c a533 4d29 1a2c f12d 411d 0227 442e
00000150: 992c 3817 c3a1 bf24 c930 4929 9daf cc2c
00000160: 0735 ef34 ddb6 7cb1 3c19 a42c a7a7 1cae
00000170: 7eb1 0d36 37b5 1ba1 3c30 f920 5927 5eb4
00000180: 0eb1 0fa1 1ba0 48ad 05b3 caaa 53b0 02a1
00000190: 6ba8 0f34 00b1 ab26 081c 4eac 13ad 2930
000001a0: 5631 bfaf 4e30 c8b6 4020 9aac 3aaa 0535
000001b0: b32a c931 d8b4 bfb1 d11d 26af 41b5 1da3
000001c0: 27b3 d8ac f035 6bae 5828 d22a 54b2 6824
000001d0: 7ab7 332e 63aa f0a1 20a7 7423 4e33 31b6
000001e0: fab1 0eb3 8229 f928 01b2 7a34 b91c d431
000001f0: 38b2 e431 562f 98b4 9834 9bac dd2c dcb2

LandmarkHead.1.conv1x1.bias f2 [20]
-0.002478 -0.0692 0.1725 -0.04913 -0.0665 0.001982 -0.1025 0.1261
0.02942 0.1918 -0.0744 -0.1672 0.1863 -0.1307 0.00864 -0.07874
-0.0671 0.2974 0.1405 0.2617
00000000: 1399 6eac 8531 4aaa 42ac 0f18 8fae 0930
00000010: 8827 2332 c3ac 5ab1 f631 2fb0 6c20 0aad
00000020: 4bac c234 7f30 3034

LandmarkHead.2.conv1x1.weight f2 [20, 64, 1, 1]
-0.0592 -0.1394 -0.06274 -0.2375 -0.0071 -0.00478 -0.02591 -0.09393
-0.1725 -0.01643 0.02072 -0.01778 0.06134 0.0936 -0.08215 0.1189
0.0901 0.1038 -0.06494 -0.0708 0.1844 0.2732 -0.1678 0.1313
-0.011665 -0.04034 0.05026 -0.12415 -0.2301 0.0337 -0.2072 -0.2113
0.03152 0.04602 0.0223 -0.05298 0.183 0.02467 0.00441 0.03108
-0.1256 0.03305 0.2384 0.1638 0.002823 -0.01334 -0.344 0.08386
-0.55 0.3362 -0.06 0.10516 0.3545 -0.437 0.1637 -0.0862
0.01271 -0.0858 -0.2083 0.013794 0.07825 -0.1481 -0.05392 -0.06
-0.02428 0.2032 0.1098 -0.0647 -0.01469 -0.1636 -0.0331 0.2922
-0.1915 -0.0097 -0.003096 -0.04514 -0.1409 -0.04013 -0.2485 -0.0891
-0.04077 -0.118 -0.1298 -0.1569 0.1311 -0.1295 0.0355 -0.1437
-0.2006 0.00409 0.06235 -0.01115 0.01665 -0.00977 0.2418 -0.1227
0.04 -0.199 0.1565 0.07477 -0.0373 0.0396 -0.04312 -0.08276
0.1356 0.001682 -0.01833 0.09674 -0.089 0.11536 0.0917 -0.08636
-0.0498 -0.04083 0.3228 -0.0726 -0.08453 -0.05966 0.09106 -0.2903
0.08014 -0.3677 -0.11176 0.01727 0.1747 -0.5913 -0.02145 0.4065
0.04037 -0.01037 -0.02571 -0.08093 -0.1207 0.277 0.0715 -0.3184
0.2135 -0.0123 -0.02475 -0.00817 -0.0896 0.2163 0.1478 -0.202
0.1199 0.05368 0.0106 0.08044 -0.0917 0.1316 0.0899 -0.2283
0.2605 0.03177 -0.07574 -0.02754 0.10974 -0.002274 -0.0587 0.1777
-0.05148 0.003765 -0.0511 -0.02815 0.1265 0.01007 0.2878 0.0572
-0.03012 -0.015236 0.1488 0.05887 -0.03146 -0.00897 0.04324 -0.045
-0.1998 0.4734 -0.129 0.01333 0.2024 -0.431 0.3843 -0.08264
0.03967 0.2964 -0.2318 -0.01611 0.1547 0.01313 -0.00272 -0.01329
-0.04727 0.02263 0.126 -0.356 -0.05783 0.02167 -0.05072 -0.00964
-0.13 0.001655 -0.10846 -0.02939 -0.0809 0.2837 -0.1788 -0.1271
0.1114 -0.01064 0.05722 -0.1342 0.2615 0.1412 0.0427 -0.158
0.0648 -0.0637 0.07916 -0.0497 0.08466 0.04587 0.01359 -0.1681
0.00566 -0.1973 0.11444 -0.0409 -0.1182 0.03568 -0.03992 -0.0008087
0.04825 0.01761 0.01104 0.2145 -0.0741 0.1448 -0.2126 -0.04636
-0.01274 -0.12177 0.2905 -0.0817 -0.039 0.00881 0.0839 -0.3064
0.0485 -0.3425 -0.1247 0.02356 0.1848 -0.58 -0.01927 0.3816
00000000: 94ab 76b0 04ac 9ab3 459f e59c a2a6 03ae
00000010: 85b1 35a4 4e25 8da4 da2b fe2d 42ad 9c2f
00000020: c42d a52e 28ac 88ac e731 5f34 5fb1 3430
00000030: f9a1 2aa9 6f2a f2af 5db3 5028 a1b2 c3b2
00000040: 0928 e429 b525 c8aa db31 5126 841c f527
00000050: 05b0 3b28 a133 3e31 c819 d5a2 81b5 5e2d
00000060: 66b8 6135 aeab bb2e ac35 feb6 3d31 84ad
00000070: 8222 7ead aab2 1023 022d bdb0 e7aa aeab
00000080: 37a6 8132 072f 24ac 85a3 3cb1 3da8 ad34
00000090: 21b2 f7a0 579a c7a9 82b0 23a9 f4b3 b4ad
000000a0: 38a9 8daf 27b0 05b1 3230 25b0 8b28 99b0
000000b0: 6bb2 301c fb2b b5a1 4324 01a1 bd33 daaf
000000c0: 1f29 5eb2 0231 c92c c6a8 1229 85a9 4cad
000000d0: 5730 e416 b1a4 312e b2ad 622f de2d 87ad
000000e0: 60aa 3aa9 2a35 a5ac 69ad a3ab d42d a5b4
000000f0: 212d e2b5 27af 6c24 9731 bbb8 7ea5 8136
00000100: 2b29 4fa1 95a6 2ead baaf 6f34 932c 18b5
00000110: d532 4ca2 56a6 2fa0 bcad ec32 bb30 77b2
00000120: ac2f df2a 6d21 262d dead 3630 c12d 4eb3
00000130: 2b34 1128 d9ac 0da7 062f a898 83ab b031
00000140: 97aa b61b 8aaa 35a7 0c30 2821 9b34 522b
00000150: b6a7 cda3 c330 892b 07a8 98a0 8929 c3a9
00000160: 65b2 9337 21b0 d322 7a32 e5b6 2636 4aad
00000170: 1429 be34 6bb3 20a4 f330 b922 9299 cea2
00000180: 0daa cb25 0830 b2b5 67ab 8c25 7eaa f0a0
00000190: 29b0 c716 f1ae 86a7 2dad 8a34 b9b1 11b0
000001a0: 212f 73a1 532b 4bb0 2f34 8530 7729 0eb1
000001b0: 262c 14ac 112d 5daa 6b2d df29 f522 61b1
000001c0: cc1d 50b2 532f 3ca9 91af 9128 1ca9 a092
000001d0: 2d2a 8224 a721 dd32 beac a230 ceb2 efa9
000001e0: 86a2 cbaf a634 3bad fea8 8320 5f2d e7b4
000001f0: 352a 7bb5 fbaf 0826 ea31 a4b8 efa4 1b36

LandmarkHead.2.conv1x1.bias f2 [20]
-0.0327 -0.1399 0.139 -0.2283 -0.004524 0.01617 -0.1681 0.3591
0.1538 0.3743 -0.07416 -0.1791 0.1576 -0.1099 -0.02466 0.02042
-0.0944 0.31 0.1732 0.2766
00000000: 30a8 7ab0 7330 4eb3 a29c 2424 61b1 bf35
00000010: ec30 fd35 bfac bbb1 0b31 09af 50a6 3a25
00000020: 0bae f634 8b31 6d34

onnx::Conv_595 f2 [8, 3, 3, 3]
0.0001897 7e-05 -0.0003214 -0.000911 0.0003521 0.0005293 0.000459 0.0008206
0.000887 0.000401 -0.000444 -0.0007186 -0.0008554 0.000574 0.0008574 0.0002292
0.000962 0.001026 0.000864 5.585e-05 -0.000219 -0.0007453 5.83e-05 0.0005007
0.0005927 0.000775 0.001036 -5.87e-05 -0.0001064 -0.0001935 -0.0001145 0.0001851
0.0001577 -4.864e-05 0.0001215 0.0001228 5.597e-05 1.83e-05 -2.587e-05 3.34e-06
0.0002537 0.0002401 6.014e-05 0.0001318 0.0001357 0.0001642 0.0001345 0.0001863
4.22e-05 0.0001346 0.0001724 0.000202 0.0001208 0.0001547 -2.07e-05 -1.43e-06
5.48e-05 6.58e-05 0.000144 7.516e-05 0.0002047 0.0002778 0.000246 7.02e-05
-0.0002062 -0.0002654 -6e-07 0.0003736 0.0003228 0.0001589 0.000556 0.0005355
-0.0001678 -8.1e-06 -2.35e-05 0.00011516 0.0002708 0.0002191 0.0003834 0.000432
0.0004244 0.001974 0.003683 0.003202 0.003057 0.004852 0.004326 0.002281
0.00395 0.00384 -0.0009017 -0.0009694 -0.001294 -0.0009565 -0.001344 -0.001591
-0.00094 -0.0004432 -0.000612 -0.001689 -0.002926 -0.00274 -0.001843 -0.003344
-0.003386 -0.001283 -0.002028 -0.00216 -9.24e-06 -0.0001281 -6.694e-05 -0.0001429
-0.000192 -1.526e-05 -0.0001581 -0.000206 -1.78e-05 -8.54e-05 -0.0001273 8.595e-05
-0.0003703 -0.000484 -9.257e-05 -0.000215 -0.0002704 4.405e-05 1.9e-06 -9.894e-05
9.59e-05 -0.0003152 -0.0004237 -0.000145 -0.0002658 -0.0003545 -2.766e-05 5.984e-05
-2.89e-05 -3.743e-05 7.087e-05 8.93e-05 0.000171 6.25e-05 -4.75e-05 9.95e-06
7.09e-05 -7.03e-06 -5.97e-05 7.6e-05 0.0001438 0.000222 5.05e-05 6.3e-06
7.8e-05 -5.69e-05 1.78e-05 -0.0001079 -6.09e-05 0.0001373 0.0001075 -8.637e-05
2.235e-05 -3.654e-05 0.0002818 4.18e-05 0.0002987 0.000215 3.016e-05 0.0001878
0.000511 0.0001545 0.0002146 -0.001986 -0.002134 -0.00217 -0.002089 -0.002127
-0.002266 -0.001784 -0.002121 -0.002357 0.001605 0.002052 0.00182 0.001842
0.002565 0.002348 0.001435 0.001924 0.001782 7.516e-05 1.62e-05 4.93e-05
8.16e-05 -7.063e-05 8.85e-05 0.0001169 -0.0001312 0.0001581 -4e-07 -3.916e-05
-1.34e-05 0.0001082 -6.15e-05 0.0001022 0.00012183 -0.0001837 0.00011927 -6.235e-05
-9.215e-05 -3.23e-05 2.1e-05 -2.7e-05 0.000178 4.6e-05 -0.00011444 0.000235
00000000: 370a 9604 448d 7793 c50d 5610 850f b912
00000010: 4413 920e 468f e391 0293 b410 0613 830b
00000020: e113 3414 1413 a903 2d8b 1b92 d203 1a10
00000030: db10 5912 3e14 d983 f986 578a 8187 110a
00000040: 2b09 3083 f607 0608 ab03 3301 b281 3800
00000050: 280c de0b f103 5208 7208 6109 6808 1b0a
00000060: c402 6908 a609 9e0a eb07 1209 5b81 1880
00000070: 9703 5004 b808 ed04 b50a 8d0c 080c 9a04
00000080: c28a 598c 0a80 1f0e 4a0d 3509 8e10 6310
00000090: 8089 8880 8a81 8c07 700c 2e0b 480e 140f
000000a0: f40e 0b18 8b1b 8f1a 431a f81c 6e1c ac18
000000b0: 0b1c dd1b 6393 f193 4d95 d693 8195 8496
000000c0: b393 438f 0391 eb96 fe99 9d99 8d97 d99a
000000d0: ef9a 4195 2798 6c98 9b80 3388 6384 af88
000000e0: 4b8a 0081 2e89 c08a 2b81 9985 2c88 a205
000000f0: 118e ee8f 1186 0c8b 6e8c e302 2000 7c86
00000100: 4906 2a8d f18e c088 5b8c cf8d d081 ec03
00000110: e581 7482 a504 da05 9a09 1904 1d83 a700
00000120: a604 7680 ea83 fb04 b608 460b 4f03 6a00
00000130: 1d05 bb83 2b01 1287 fe83 8008 0c07 a985
00000140: 7701 6582 9e0c bd02 e50c 0c0b fa01 270a
00000150: 3010 1009 080b 1198 5f98 7298 4798 5b98
00000160: a498 4f97 5898 d498 9316 3418 7417 8b17
00000170: 4119 cf18 e115 e117 4d17 ed04 1001 3b03
00000180: 5905 a184 cd05 a907 4d88 2e09 0780 9182
00000190: e180 1707 0884 b306 fc07 058a d107 1684
000001a0: 0a86 1e82 6001 c581 d509 0403 8087 b30b

onnx::Conv_596 f2 [8]
0.4233 -0.4556 0.646 -0.662 0.6763 0.4373 -0.8486 -0.666
00000000: c636 4ab7 2b39 4cb9 6939 ff36 caba 54b9

onnx::Conv_598 f2 [8, 1, 3, 3]
0.1514 0.3413 0.091 0.09235 0.3306 0.014915 -0.04718 -0.272
-0.0564 1.896 18.5 2.123 -4.68 -58.62 -7.848 -0.3625
7.52 3.443 -0.3381 2.498 0.03622 -0.1584 -0.397 -0.4578
0.0858 -0.1171 0.2079 -0.10596 -0.5063 -0.1387 0.0633 -1.525
-0.135 0.0913 -0.2537 0.091 0.2137 -2.418 -3.1 -0.2408
1.163 1.254 -0.1797 1.44 1.982 -0.2094 -0.363 0.721
1.291 -11.4 -0.687 -0.5464 1.005 0.682 -0.252 -1.457
-0.444 0.18 -2.934 -0.692 0.3203 -0.529 0.55 25.53
61.75 -30.45 -22.27 -3.5 -21.98 5.98 10.17 -2.725
00000000: d830 7635 d32d e92d 4a35 a323 0aaa 5ab4
00000010: 38ab 963f a04c 3f40 aec4 54d3 d9c7 cdb5
00000020: 8547 e342 69b5 ff40 a328 12b1 5ab6 53b7
00000030: 7e2d 7faf a732 c8ae 0db8 70b0 0d2c 1abe
00000040: 52b0 d82d 0fb4 d32d d732 d6c0 33c2 b5b3
00000050: a73c 043d c0b1 c33d ee3f b3b2 cfb5 c539
00000060: 2a3d b3c9 7fb9 5fb8 053c 7539 08b4 d4bd
00000070: 1bb7 c331 dec1 89b9 2035 3bb8 6638 624e
00000080: b853 9dcf 91cd 00c3 7fcd fb45 1649 73c1

onnx::Conv_599 f2 [8]
0.1573 -2.246 0.0571 0.05246 0.4775 3.867 -0.00789 0.966
00000000: 0931 7ec0 4f2b b72a a437 bc43 0aa0 ba3b

onnx::Conv_601 f2 [16, 8, 1, 1]
0.04074 0.0458 -0.1339 -0.02734 -0.8833 0.004227 -0.02937 -0.0999
0.556 -0.001488 0.6504 0.09265 -0.0965 -0.1815 -0.01323 0.3428
-0.8896 0.2075 0.688 -0.04535 0.3618 0.0503 -0.0386 -0.8843
0.06287 0.11475 -0.4065 0.003548 0.0292 0.0714 0.01506 -0.1678
0.3796 -0.1617 -0.2487 0.02159 -0.1979 -0.00378 -0.04324 -0.0702
0.1109 0.4316 -0.0998 -0.63 0.06726 -0.4675 1.257 -0.323
1.051 -0.3018 -0.8345 0.05557 -0.3267 -0.05127 -0.0791 -0.629
0.03745 -0.1534 -0.0587 1.218 0.0157 -0.05746 0.359 0.02
0.07684 0.2443 -0.6934 -0.0993 0.04108 0.08044 0.0316 -0.4285
0.01591 0.3367 -0.8926 -0.0966 0.157 0.5283 0.1392 -0.05664
0.1693 -0.1981 0.3748 -0.0786 0.01677 -0.0965 0.01671 0.08624
0.03093 -0.09546 -0.012856 0.7603 -0.010765 0.09906 -0.4932 -0.09314
-0.0481 0.0214 -0.02858 -0.3833 0.02145 -0.03119 0.2015 0.0428
-0.6113 0.1804 0.6045 0.007866 0.237 0.2876 -0.04813 -0.0782
-0.0568 -0.1233 -0.03763 0.0363 0.0247 0.03946 -1.303 -0.1285
0.2236 -0.2115 -0.404 -0.02567 -1.56 -0.02214 0.04428 -0.05887
00000000: 3729 dd29 49b0 00a7 11bb 541c 85a7 65ae
00000010: 7338 1896 3439 ee2d 2dae cfb1 c6a2 7c35
00000020: 1ebb a432 8139 cea9 ca35 702a f1a8 13bb
00000030: 062c 582f 81b6 441b 7a27 922c b623 5fb1
00000040: 1336 2db1 f5b3 8725 55b2 be9b 89a9 7eac
00000050: 192f e836 63ae 0ab9 4e2c 7bb7 073d 2bb5
00000060: 343c d4b4 adba 1d2b 3ab5 90aa 10ad 08b9
00000070: cb28 e9b0 83ab df3c 0524 5bab be35 1f25
00000080: eb2c d133 8cb9 5bae 4229 262d 0b28 dbb6
00000090: 1324 6335 24bb 2fae 0631 3a38 7430 40ab
000000a0: 6b31 57b2 ff35 08ad 4b24 2dae 4724 852d
000000b0: eb27 1cae 95a2 153a 83a1 572e e4b7 f6ad
000000c0: 28aa 7a25 51a7 22b6 7e25 fca7 7332 7a29
000000d0: e4b8 c631 d638 0720 9633 9a34 29aa 01ad
000000e0: 45ab e4af d1a8 a528 5326 0d29 36bd 1db0
000000f0: 2833 c5b2 77b6 92a6 3dbe aba5 ab29 89ab

onnx::Conv_602 f2 [16]
1.042 -1.455 -0.05576 0.8296 0.76 -0.2654 0.9004 0.1483
1.177 -0.2537 0.0962 0.2795 0.5474 -0.0905 0.7734 1.362
00000000: 2b3c d2bd 23ab a33a 143a 3fb4 343b bf30
00000010: b53c 0fb4 282e 7934 6138 cbad 303a 733d

onnx::Conv_604 f2 [16, 1, 3, 3]
-0.0454 -0.1564 0.03818 -0.2773 -0.9565 0.3218 -0.3142 -0.7935
-0.04745 -0.93 1.506 -0.515 -0.76 0.6377 1.654 0.4856
-0.4993 1.092 -0.3271 -0.8906 -0.69 0.9185 1.823 0.82
-0.462 -0.829 -0.1163 0.008606 2.303 -2.223 -1.806 6.785
-4.66 -2.152 5.01 -3.043 0.3096 -0.9155 1.678 0.2812
1.147 2.516 -0.4692 -0.3987 -4.316 0.01917 -0.1498 -0.1799
-0.28 0.0927 0.4333 -0.3901 0.1531 0.607 -0.1381 -1.893
-1.809 -0.504 1.0205 1.863 0.2834 0.4634 0.4426 -0.02971
-0.2456 -0.3538 -0.3892 0.1096 0.744 -0.3591 0.3398 1.068
-1.662 1.553 0.6147 -2.66 1.654 0.815 -0.9956 0.3496
-0.0635 -0.2776 3.875 3.268 -0.3848 0.873 1.325 -1.41
-3.41 -2.027 -0.7046 1.367 -0.00876 0.7837 -0.2656 -1.301
1.52 -1.2 -1.242 -0.9365 0.6123 1.224 -0.4097 0.518
0.705 -0.1404 -0.1428 -0.4998 -0.602 2.703 4.496 -0.306
-0.2886 0.862 0.2014 -2.88 -3.816 1.223 1.381 -1.769
-2.287 -1.622 3.31 0.5923 1.048 -1.644 0.0903 -0.3862
-0.835 -0.34 0.2393 0.715 -0.759 0.5444 1.579 -0.10675
-0.808 -0.0515 -0.00649 -0.4417 -0.1603 0.0573 0.1316 -0.0709
00000000: d0a9 01b1 e328 70b4 a7bb 2635 07b5 59ba
00000010: 13aa 71bb 063e 1fb8 14ba 1a39 9e3e c537
00000020: fdb7 5e3c 3cb5 20bb 85b9 593b 4b3f 8f3a
00000030: 64b7 a2ba 71af 6820 9b40 72c0 39bf c946
00000040: a9c4 4ec0 0345 16c2 f434 53bb b63e 8034
00000050: 973c 0841 82b7 61b6 51c4 e824 cbb0 c2b1
00000060: 7bb4 ef2d ef36 3eb6 e630 db38 6bb0 92bf
00000070: 3cbf 08b8 153c 743f 8934 6a37 1537 9ba7
00000080: dcb3 a9b5 3ab6 042f f439 bfb5 7035 463c
00000090: a6be 363e eb38 52c1 9e3e 853a f7bb 9835
000000a0: 10ac 71b4 c043 8942 28b6 fc3a 4d3d a4bd
000000b0: d2c2 0ec0 a3b9 783d 7ca0 453a 40b4 34bd
000000c0: 143e cdbc f8bc 7ebb e638 e53c 8eb6 2538
000000d0: a439 7eb0 92b0 ffb7 d1b8 6841 7f44 e5b4
000000e0: 9eb4 e53a 7232 c3c1 a2c3 e43c 863d 13bf
000000f0: 93c0 7dbe 9f42 bd38 313c 93be c72d 2eb6
00000100: aeba 71b5 a833 b839 12ba 5b38 513e d5ae
00000110: 77ba 98aa a59e 11b7 21b1 562b 3630 8aac

onnx::Conv_605 f2 [16]
1.418 0.4922 0.6055 1.097 0.6597 0.6104 0.2328 0.07654
0.9507 0.1902 1.481 -0.03934 -0.1326 -0.06433 -0.01718 0.6616
00000000: ac3d e037 d838 633c 4739 e238 7333 e62c
00000010: 9b3b 1632 ed3d 09a9 3eb0 1eac 66a4 4b39

onnx::Conv_607 f2 [32, 16, 1, 1]
-0.483 0.1569 -0.2747 0.06616 -0.1936 0.1715 -0.207 0.02777
-0.3535 0.2004 -0.2847 0.1332 0.03226 -0.1494 0.093 -0.4578
-0.198 -0.1234 0.3516 0.02821 -0.4067 -0.4453 0.2595 -0.2566
-0.08655 -0.048 0.278 -0.01593 -0.1285 -0.1455 -0.1289 0.04138
-0.4355 -0.02025 -0.2446 0.01422 -0.008675 -0.03592 0.1621 0.02112
0.02426 0.03598 -0.005535 0.0274 -0.0779 0.03111 0.05347 0.0099
0.01254 -0.1749 0.07465 0.01996 0.01952 0.764 0.0672 1.054
-0.02008 -0.00624 0.03674 -0.01247 0.07214 0.09296 -0.7974 -0.0364
-0.2301 -0.1907 -0.1732 -0.1599 -0.1624 -0.0961 -0.08984 -0.0652
0.2386 0.261 0.158 0.01406 -0.1333 -0.0512 0.01438 -0.25
-0.014275 0.02588 0.001454 0.3188 -0.0052 -0.01522 -0.00839 -0.009186
0.10846 0.00807 0.03894 -0.00122 -0.03943 0.02003 -0.004265 0.002079
-0.2524 0.438 0.468 -0.02846 0.5586 0.04968 0.4111 -0.03442
-0.0649 0.631 0.0689 -0.0363 0.04758 0.4006 0.0138 -0.2299
-0.2942 0.11475 -0.1163 -0.2078 -0.0687 0.0645 0.04697 -0.02834
0.2798 0.08417 0.1753 0.07806 0.04855 -0.1384 0.065 -0.428
-0.03026 -0.06113 -0.04742 -0.02483 -0.02391 0.633 -0.00278 -0.4062
0.03754 0.02718 -0.10333 -0.04028 -0.1768 0.001711 -0.565 0.04324
0.1866 0.02383 0.0355 -0.04407 -0.05087 0.04785 0.04346 -0.06015
0.04587 -0.0828 0.1326 0.04 -0.02972 0.00877 -0.008255 0.2468
0.09064 0.02373 0.03088 0.0783 0.02957 0.2139 -0.009575 -0.03937
-0.0924 -0.1791 -0.10266 -0.1307 0.2268 -0.003046 -0.01714 0.03708
0.00948 0.04425 0.1395 0.00827 -0.2656 -0.1101 -1.35 -0.0477
-0.04596 -0.0628 -0.02513 -0.07623 0.0713 0.7153 0.04483 -0.1175
0.0609 0.0947 -0.009636 -0.598 -0.03806 -0.07733 -0.03558 -0.05267
0.4 0.03363 0.32 -0.03775 0.01105 -0.062 0.01266 -0.02092
-0.0756 -0.1567 -0.015175 -0.1271 -0.53 -0.07446 0.07666 -0.04694
0.04965 -0.0502 0.05392 0.08124 -0.02684 0.0913 -0.05753 0.007263
-0.1368 -0.2332 -0.01912 -0.02422 -0.05167 -0.02284 0.0446 -0.1395
0.02126 -0.3608 0.0996 0.7544 -0.9487 0.0077 -0.31 0.1017
-0.1814 -0.02162 0.02315 0.011826 -0.2742 -0.06433 0.09033 0.009865
-0.0095 -0.0147 0.1517 0.0723 -0.003157 0.01182 -0.02924 0.2291
00000000: bab7 0531 65b4 3c2c 32b2 7d31 a0b2 1c27
00000010: a8b5 6a32 8eb4 4330 2128 c8b0 f42d 53b7
00000020: 56b2 e6af a035 3927 82b6 20b7 2734 1bb4
00000030: 8aad 25aa 7334 14a4 1db0 a8b0 20b0 4c29
00000040: f8b6 2fa5 d4b3 4823 71a0 99a8 3031 6825
00000050: 3626 9b28 ab9d 0427 fcac f727 d82a 1221
00000060: 6c22 99b1 c72c 1c25 ff24 1d3a 4d2c 373c
00000070: 24a5 649e b428 62a2 9e2c f32d 61ba a9a8
00000080: 5db3 1ab2 8bb1 1eb1 32b1 27ae c0ad 2cac
00000090: a333 2d34 0e31 3323 44b0 8eaa 5d23 00b4
000000a0: 4fa3 a026 f515 1a35 539d cba3 4ca0 b4a0
000000b0: f12e 2220 fc28 ff94 0ca9 2125 5e9c 4218
000000c0: 0ab4 0237 7d37 49a7 7838 5c2a 9436 68a8
000000d0: 27ac 0c39 692c a5a8 172a 6936 1123 5bb3
000000e0: b5b4 582f 71af a6b2 66ac 212c 032a 41a7
000000f0: 7a34 632d 9c31 ff2c 372a 6eb0 292c d9b6
00000100: bfa7 d3ab 12aa 5ba6 1fa6 1039 b299 80b6
00000110: ce28 f526 9dae 28a9 a8b1 0217 85b8 8929
00000120: f931 1a26 8b28 a4a9 83aa 202a 9029 b3ab
00000130: df29 4dad 3e30 1f29 9ca7 7e20 3aa0 e633
00000140: cd2d 1326 e827 032d 9227 d832 e7a0 0aa9
00000150: eaad bbb1 92ae 2fb0 4233 3d9a 63a4 bf28
00000160: db20 aa29 7730 3c20 40b4 0caf 66bd 1baa
00000170: e2a9 05ac 6fa6 e1ac 902c b939 bd29 85af
00000180: cc2b 102e efa0 c9b8 dfa8 f3ac 8ea8 beaa
00000190: 6636 4e28 1f35 d5a8 a821 f0ab 7b22 5ba5
000001a0: d7ac 04b1 c5a3 11b0 3db8 c4ac e82c 02aa
000001b0: 5b2a 6daa e72a 332d dfa6 d82d 5dab 701f
000001c0: 61b0 76b3 e5a4 33a6 9daa d9a5 b529 77b0
000001d0: 7125 c6b5 602e 093a 97bb e31f f6b4 822e
000001e0: ceb1 89a5 ed25 0e22 63b4 1eac c82d 0d21
000001f0: dda0 87a3 db30 a12c 779a 0d22 7ca7 5533

onnx::Conv_608 f2 [32]
1.193 0.1973 0.6733 -0.656 0.837 -0.1826 -0.6177 0.435
0.505 0.144 0.2365 0.6304 0.4827 0.8364 0.3845 0.3918
0.2189 0.775 -0.3347 1.134 0.1108 0.1997 -0.2386 1.295
-0.562 -0.003994 0.5923 0.4636 -0.367 -0.9155 0.355 0.582
00000000: c63c 5032 6339 3fb9 b23a d8b1 f1b8 f636
00000010: 0a38 9c30 9133 0b39 b937 b13a 2736 4536
00000020: 0133 333a 5bb5 893c 172f 6432 a3b3 2e3d
00000030: 7fb8 179c bd38 6b37 dfb5 53bb ae35 a838
