lib/src/main/assets/RetinaFace512_INT8.onnx (onnx, 648808 bytes, 168 tensors)

onnx::Conv_595_scale f4 [8]
000000 a1 de 08 37 72 1b 06 36 ac ed 92 36 98 3a 20 38
       8.1580665e-06 1.9983531e-06 4.3788077e-06 3.8201542e-05
000010 e6 c7 7f 36 70 a4 ea 35 f5 77 a9 37 b9 4c f8 35
       3.8114317e-06 1.7482216e-06 2.020223e-05 1.8499769e-06

onnx::Conv_595_quantized i1 [8, 3, 3, 3]
000000 17 09 d9 90 2b 41 38 65 6d 31 ca a8 97 46 69 1c
       23 9 -39 -112 43 65 56 101 109 49 -54 -88 -105 70 105 28
000010 76 7e 6a 07 e5 a5 07 3d 49 5f 7f e3 cb 9f c7 5d
       118 126 106 7 -27 -91 7 61 73 95 127 -29 -53 -97 -57 93
000020 4f e8 3d 3d 1c 09 f3 02 7f 78 1e 42 44 52 43 5d
       79 -24 61 61 28 9 -13 2 127 120 30 66 68 82 67 93
000030 15 43 56 65 3c 4d fb 00 0d 0f 21 11 2f 3f 38 10
       21 67 86 101 60 77 -5 0 13 15 33 17 47 63 56 16
000040 d1 c3 00 55 4a 24 7f 7a da fe fb 1a 3e 32 58 63
       -47 -61 0 85 74 36 127 122 -38 -2 -5 26 62 50 88 99
000050 61 34 60 54 50 7f 71 3c 67 65 e8 e7 de e7 dd d6
       97 52 96 84 80 127 113 60 103 101 -24 -25 -34 -25 -35 -42
000060 e7 f4 f0 d4 b3 b8 d0 a8 a7 de cb c7 fe de ee db
       -25 -12 -16 -44 -77 -72 -48 -88 -89 -34 -53 -57 -2 -34 -18 -37
000070 ce fc d7 ca fb ea df 17 9f 81 e8 c8 b9 0c 01 e6
       -50 -4 -41 -54 -5 -22 -33 23 -97 -127 -24 -56 -71 12 1 -26
000080 19 ad 91 da ba a3 f9 22 ef eb 29 33 62 24 e5 06
       25 -83 -111 -38 -70 -93 -7 34 -17 -21 41 51 98 36 -27 6
000090 29 fc de 2b 52 7f 1d 04 2d df 0a c2 dd 4f 3e cf
       41 -4 -34 43 82 127 29 4 45 -33 10 -62 -35 79 62 -49
0000a0 0d eb 0e 02 0f 0b 01 09 19 08 0b 9e 96 95 99 97
       13 -21 14 2 15 11 1 9 25 8 11 -98 -106 -107 -103 -105
0000b0 90 a8 97 8b 4f 66 5a 5b 7f 74 47 5f 58 29 09 1b
       -112 -88 -105 -117 79 102 90 91 127 116 71 95 88 41 9 27
0000c0 2c da 30 3f b9 55 00 eb f9 3a df 37 42 9d 40 de
       44 -38 48 63 -71 85 0 -21 -7 58 -33 55 66 -99 64 -34
0000d0 ce ef 0b f1 60 19 c2 7f
       -50 -17 11 -15 96 25 -62 127

onnx::Conv_598_scale f4 [8]
000000 3e 24 30 3b 60 4f ec 3e 53 24 a1 3c e8 d7 44 3c
       0.002687707 0.46154308 0.019670641 0.012014367
000010 89 ee c7 3c 79 d4 b7 3d f6 36 bd 3c 69 fa f8 3e
       0.024405735 0.08976073 0.023097496 0.48628548

onnx::Conv_598_quantized i1 [8, 1, 3, 3]
000000 38 7f 22 22 7b 06 ee 9b eb 04 28 05 f6 81 ef ff
       56 127 34 34 123 6 -18 -101 -21 4 40 5 -10 -127 -17 -1
000010 10 07 ef 7f 02 f8 ec e9 04 fa 0b f7 d6 f4 05 81
       16 7 -17 127 2 -8 -20 -23 4 -6 11 -9 -42 -12 5 -127
000020 f5 08 eb 08 09 9d 81 f6 30 33 f9 3b 51 fe fc 08
       -11 8 -21 8 9 -99 -127 -10 48 51 -7 59 81 -2 -4 8
000030 0e 81 f8 fa 0b 08 f5 c1 ed 08 81 e2 0e e9 18 35
       14 -127 -8 -6 11 8 -11 -63 -19 8 -127 -30 14 -23 24 53
000040 7f c1 d2 f9 d3 0c 15 fa
       127 -63 -46 -7 -45 12 21 -6

onnx::Conv_601_scale f4 [16]
000000 54 e6 e3 3b 12 d3 a7 3b bb 8d e5 3b 68 ba 51 3b
       0.0069549475 0.005121597 0.007005421 0.0032001976
000010 5a da 43 3b 73 31 22 3c 0b 9c 07 3c 5c 1c 1d 3c
       0.0029884786 0.009899485 0.00827695 0.009589281
000020 35 e2 b2 3b a2 4b e6 3b 11 6d 41 3b 6a 2f c4 3b
       0.005459095 0.007028059 0.0029514472 0.0059870975
000030 13 bf 45 3b 2a b9 9d 3b 72 08 28 3c 5e 34 49 3c
       0.0030173704 0.004813333 0.01025592 0.012280552

onnx::Conv_601_quantized i1 [16, 8, 1, 1]
000000 06 07 ed fc 81 01 fc f2 6d 00 7f 12 ed dd fd 43
       6 7 -19 -4 -127 1 -4 -14 109 0 127 18 -19 -35 -3 67
000010 81 1e 62 fa 34 07 fa 82 14 24 81 01 09 16 05 cc
       -127 30 98 -6 52 7 -6 -126 20 36 -127 1 9 22 5 -52
000020 7f ca ad 07 be ff f2 e9 0b 2c f6 c0 07 d1 7f df
       127 -54 -83 7 -66 -1 -14 -23 11 44 -10 -64 7 -47 127 -33
000030 7f dc 9b 07 d9 fa f6 b4 04 f0 fa 7f 02 fa 25 02
       127 -36 -101 7 -39 -6 -10 -76 4 -16 -6 127 2 -6 37 2
000040 0e 2d 81 ee 08 0f 06 b1 02 30 81 f2 16 4b 14 f8
       14 45 -127 -18 8 15 6 -79 2 48 -127 -14 22 75 20 -8
000050 39 bd 7f e5 06 df 06 1d 05 f0 fe 7f fe 11 ae f0
       57 -67 127 -27 6 -33 6 29 5 -16 -2 127 -2 17 -82 -16
000060 f0 07 f7 81 07 f6 43 0e 81 25 7e 02 31 3c f6 f0
       -16 7 -9 -127 7 -10 67 14 -127 37 126 2 49 60 -10 -16
000070 fa f4 fc 04 02 04 81 f3 12 ef df fe 81 fe 04 fb
       -6 -12 -4 4 2 4 -127 -13 18 -17 -33 -2 -127 -2 4 -5

onnx::Conv_604_scale f4 [16]
000000 cf bf f6 3b bc 66 55 3c 60 46 6b 3c 37 e0 5a 3d
       0.0075301896 0.013024982 0.01436004 0.053436484
000010 fc 2e 0b 3d 24 8a 9c 3b 4b 37 74 3c 5d d5 09 3c
       0.033980355 0.00477721 0.014905761 0.008412686
000020 14 a3 ab 3c 7f fe f9 3c 53 fb 43 3c 8f e7 1d 3c
       0.020951785 0.030516861 0.011961776 0.009637727
000030 30 05 11 3d 5c 8d d5 3c 58 b7 4b 3c 11 87 d0 3b
       0.035405338 0.026068382 0.012433849 0.0063637574

onnx::Conv_604_quantized i1 [16, 1, 3, 3]
000000 fa eb 05 db 81 2b d6 97 fa b9 74 d8 c6 31 7f 25
       -6 -21 5 -37 -127 43 -42 -105 -6 -71 116 -40 -58 49 127 37
000010 da 54 e9 c2 d0 40 7f 39 e0 c6 f8 00 2b d6 de 7f
       -38 84 -23 -62 -48 64 127 57 -32 -58 -8 0 43 -42 -34 127
000020 a9 d8 5e c7 09 e5 31 08 22 4a f2 f4 81 04 e1 da
       -87 -40 94 -57 9 -27 49 8 34 74 -14 -12 -127 4 -31 -38
000030 c5 13 5b ae 20 7f f7 81 87 de 44 7d 13 1f 1e fc
       -59 19 91 -82 32 127 -9 -127 -121 -34 68 125 19 31 30 -4
000040 e3 d6 d2 0d 58 d5 28 7f b1 4a 1d 81 4f 27 d0 11
       -29 -42 -46 13 88 -43 40 127 -79 74 29 -127 79 39 -48 17
000050 fd f7 7f 6b f3 1d 2b d2 90 be c5 72 ff 42 ea 93
       -3 -9 127 107 -13 29 43 -46 -112 -66 -59 114 -1 66 -22 -109
000060 7f 9c 98 9f 40 7f d5 36 49 f1 f1 cc ef 4c 7f f7
       127 -100 -104 -97 64 127 -43 54 73 -15 -15 -52 -17 76 127 -9
000070 f8 18 06 af 94 2f 35 bc a8 c2 7f 17 28 c1 07 e1
       -8 24 6 -81 -108 47 53 -68 -88 -62 127 23 40 -63 7 -31
000080 bd e5 13 39 c3 2c 7f ef 81 f8 ff bb e7 09 15 f5
       -67 -27 19 57 -61 44 127 -17 -127 -8 -1 -69 -25 9 21 -11

onnx::Conv_607_scale f4 [32]
000000 a6 2a 79 3b b0 cc 65 3b 7d c5 60 3b b5 fb 07 3c
       0.0038019805 0.003506463 0.00342974 0.008299758
000010 cc ad 06 3b e5 93 24 3b a6 bd a2 3b ff da 5c 3b
       0.0020550368 0.0025112566 0.0049664555 0.0033699868
000020 be 4f a3 3b 15 cc fe 3a d3 20 ea 3a fa 17 2e 3c
       0.0049838712 0.0019439483 0.0017862566 0.010625834
000030 a0 46 9a 3b 00 b4 88 3b 95 c0 f4 3b 0f 82 0d 3b
       0.004708126 0.0041718483 0.0074692466 0.0021592414
000040 f9 74 a2 3b c2 50 8b 3b 6a 24 a2 3b fd 41 2b 3b
       0.004957792 0.0042515704 0.0049481886 0.0026131861
000050 79 40 c5 3b 53 9d 38 3a 33 ff 92 3b a1 22 d3 3b
       0.0060196486 0.0007042486 0.0044859885 0.006443337
000060 37 86 5c 3a b9 af 47 3b 10 bb 90 3b bd 3f 20 3b
       0.00084123336 0.003046973 0.004416831 0.0024452053
000070 07 5b 90 3b 0c 51 18 3c 26 34 e2 3a 15 d8 b0 3a
       0.0044053826 0.009296667 0.0017257973 0.0013492132

onnx::Conv_607_quantized i1 [32, 16, 1, 1]
000000 81 29 b8 11 cd 2d ca 07 a3 35 b5 23 08 d9 18 88
       -127 41 -72 17 -51 45 -54 7 -93 53 -75 35 8 -39 24 -120
000010 c8 dd 64 08 8c 81 4a b7 e7 f2 4f fb db d7 db 0c
       -56 -35 100 8 -116 -127 74 -73 -25 -14 79 -5 -37 -41 -37 12
000020 81 fa b9 04 fd f6 2f 06 07 0a fe 08 e9 09 10 03
       -127 -6 -71 4 -3 -10 47 6 7 10 -2 8 -23 9 16 3
000030 02 eb 09 02 02 5c 08 7f fe ff 04 fe 09 0b a0 fc
       2 -21 9 2 2 92 8 127 -2 -1 4 -2 9 11 -96 -4
000040 90 a3 ac b2 b1 d1 d4 e0 74 7f 4d 07 bf e7 07 86
       -112 -93 -84 -78 -79 -47 -44 -32 116 127 77 7 -65 -25 7 -122
000050 fa 0a 01 7f fe fa fd fc 2b 03 10 00 f0 08 fe 01
       -6 10 1 127 -2 -6 -3 -4 43 3 16 0 -16 8 -2 1
000060 cd 58 5e fa 71 0a 53 f9 f3 7f 0e f9 0a 51 03 d2
       -51 88 94 -6 113 10 83 -7 -13 127 14 -7 10 81 3 -46
000070 a9 22 de c2 ec 13 0e f8 53 19 34 17 0e d7 13 81
       -87 34 -34 -62 -20 19 14 -8 83 25 52 23 14 -41 19 -127
000080 fa f4 f6 fb fb 7f ff ae 08 05 eb f8 dd 00 8f 09
       -6 -12 -10 -5 -5 127 -1 -82 8 5 -21 -8 -35 0 -113 9
000090 60 0c 12 e9 e6 19 16 e1 18 d5 44 15 f1 05 fc 7f
       96 12 18 -23 -26 25 22 -31 24 -43 68 21 -15 5 -4 127
0000a0 33 0d 11 2c 11 78 fb ea cc 9c c7 b7 7f fe f6 15
       51 13 17 44 17 120 -5 -22 -52 -100 -57 -73 127 -2 -10 21
0000b0 01 04 0d 01 e7 f6 81 fc fc fa fe f9 07 43 04 f5
       1 4 13 1 -25 -10 -127 -4 -4 -6 -2 -7 7 67 4 -11
0000c0 0d 14 fe 81 f8 f0 f8 f5 55 07 44 f8 02 f3 03 fc
       13 20 -2 -127 -8 -16 -8 -11 85 7 68 -8 2 -13 3 -4
0000d0 ee da fc e2 81 ee 12 f5 0c f4 0d 13 fa 16 f2 02
       -18 -38 -4 -30 -127 -18 18 -11 12 -12 13 19 -6 22 -14 2
0000e0 ee e1 fd fd f9 fd 06 ed 03 d0 0d 65 81 01 d6 0e
       -18 -31 -3 -3 -7 -3 6 -19 3 -48 13 101 -127 1 -42 14
0000f0 ac f6 0b 05 81 e2 2a 05 fc f9 46 21 ff 05 f2 6a
       -84 -10 11 5 -127 -30 42 5 -4 -7 70 33 -1 5 -14 106

onnx::Conv_610_scale f4 [32]
000000 d4 30 0d 3c 81 9e dc 3b fb 9e 3c 3c 4f b2 b2 3b
       0.008617599 0.0067327623 0.011512513 0.005453385
000010 6e f4 3d 3c 0f f8 03 3d b8 da 29 3c 3b c3 55 3c
       0.011593921 0.03221899 0.010367088 0.013047035
000020 a0 36 ef 3b 75 6a 9a 3c 3c 33 d6 3c 2d f0 56 3c
       0.007300213 0.01884959 0.026147477 0.013118786
000030 ad dd 86 3c 60 97 3a 3c f6 08 19 3c 77 12 4a 3c
       0.016463125 0.01138863 0.009340515 0.012333504
000040 28 3d e6 3b f4 9a a3 3b 79 77 07 3c ae 7e f7 3c
       0.0070263334 0.004992837 0.008268231 0.030211773
000050 36 37 c8 3b c6 c4 02 3e 3d e8 1c 3c e5 5b 7f 3c
       0.0061100973 0.12770376 0.009576854 0.015585874
000060 dc 8f 22 3e 3c 56 3f 3c 62 7b e9 3b 66 d6 a2 3c
       0.1587519 0.011678275 0.007125304 0.019877624
000070 60 1f bc 3c 37 de ee 3b ed 43 b2 3c 3b 23 da 3c
       0.02296418 0.0072896737 0.021760905 0.026628127

onnx::Conv_610_quantized i1 [32, 1, 3, 3]
000000 f3 d9 f1 cc dd 56 01 7f 07 e0 be 0a e4 81 09 fa
       -13 -39 -15 -52 -35 86 1 127 7 -32 -66 10 -28 -127 9 -6
000010 e4 05 00 b9 fa 35 7f 23 f2 bd e7 58 53 ab 3e 7f
       -28 5 0 -71 -6 53 127 35 -14 -67 -25 88 83 -85 62 127
000020 da a6 c2 fa 30 b7 f9 f0 7a 81 1c 2a ee f6 01 f9
       -38 -90 -62 -6 48 -73 -7 -16 122 -127 28 42 -18 -10 1 -7
000030 03 7f e2 ff 0a 00 16 fc 1b fb 81 f4 13 b4 10 09
       3 127 -30 -1 10 0 22 -4 27 -5 -127 -12 19 -76 16 9
000040 13 08 c8 55 19 07 81 ed c7 a3 3d a4 81 4c 2a 4c
       19 8 -56 85 25 7 -127 -19 -57 -93 61 -92 -127 76 42 76
000050 1e e9 d0 0c b5 af 7f 05 2d 03 19 d6 ff 4f 81 44
       30 -23 -48 12 -75 -81 127 5 45 3 25 -42 -1 79 -127 68
000060 1d d4 0a 0c f8 fe f4 7f a0 f2 f9 0d ff 09 08 81
       29 -44 10 12 -8 -2 -12 127 -96 -14 -7 13 -1 9 8 -127
000070 10 19 f3 05 fe 7f 90 ff 8f 6b 21 e9 0b 06 dc a8
       16 25 -13 5 -2 127 -112 -1 -113 107 33 -23 11 6 -36 -88
000080 f2 1c 67 de 28 7f cb 2f 7f 1f c5 94 d2 ef 13 fa
       -14 28 103 -34 40 127 -53 47 127 31 -59 -108 -46 -17 19 -6
000090 f9 81 d5 3c 7c 82 11 79 f6 11 ed fb 7f 7c fe 13
       -7 -127 -43 60 124 -126 17 121 -10 17 -19 -5 127 124 -2 19
0000a0 0c e9 2b 6c 03 5b 2a c7 9a 81 ee fa 07 32 11 ec
       12 -23 43 108 3 91 42 -57 -102 -127 -18 -6 7 50 17 -20
0000b0 81 00 1a 18 15 d1 0a 09 81 e2 07 01 ca 00 17 04
       -127 0 26 24 21 -47 10 9 -127 -30 7 1 -54 0 23 4
0000c0 ef 81 e7 01 ec 12 0c 40 10 09 7f fe f0 05 0a 00
       -17 -127 -25 1 -20 18 12 64 16 9 127 -2 -16 5 10 0
0000d0 06 ec 0d 7c 81 f9 08 ec de f4 2a 91 81 ec f0 24
       6 -20 13 124 -127 -7 8 -20 -34 -12 42 -111 -127 -20 -16 36
0000e0 ea d2 ae b9 0e 7f e7 19 16 fb 9e c7 5d d3 81 f5
       -22 -46 -82 -71 14 127 -25 25 22 -5 -98 -57 93 -45 -127 -11
0000f0 45 03 1b 03 81 09 ef 06 fc 07 fd 08 fd 05 05 d3
       69 3 27 3 -127 9 -17 6 -4 7 -3 8 -3 5 5 -45

onnx::Conv_613_scale f4 [32]
000000 68 5c 20 3c 5a d3 85 3b a1 66 ea 3b 3d 5e 1a 3b
       0.009787656 0.004084033 0.0071533476 0.0023554706
000010 6e 68 2a 3b 46 1c 54 3b 0e 6d 9b 3b 3e 1d 9d 3b
       0.0026002186 0.0032365485 0.004743225 0.0047947457
000020 cd 9c a4 3b 0c 6b 76 3b 28 4d 44 3b ae 50 9c 3b
       0.005023575 0.0037600426 0.0029953215 0.00477036
000030 f7 14 98 3b e5 b6 6a 3b e4 73 94 3b 5f b4 df 3b
       0.004641171 0.003581458 0.004530417 0.006826922
000040 3a 39 f3 3b 7e 68 c8 3b 4c ab b2 3b 13 93 be 3a
       0.0074225934 0.006115972 0.005452549 0.0014539681
000050 19 37 6b 3c a0 43 ae 3b 00 b5 b5 3b d8 98 15 3a
       0.014356398 0.00531812 0.0055452585 0.00057066744
000060 6c 26 9e 3b 88 cd 15 3c e0 85 f7 3b ad 01 93 3b
       0.0048263576 0.009143241 0.007553801 0.0044862838
000070 c5 4d 97 3b e0 4f 34 3a f9 50 a9 3b 58 ea 9f 3b
       0.004617425 0.00068783574 0.0051671234 0.004880231

onnx::Conv_613_quantized i1 [32, 32, 1, 1]
000000 f1 20 f5 7f 01 0c fc 03 0b ed 02 fa f6 fa 19 0d
       -15 32 -11 127 1 12 -4 3 11 -19 2 -6 -10 -6 25 13
000010 01 dc 0d 02 00 12 05 0b f5 fa ea 03 06 f6 06 0d
       1 -36 13 2 0 18 5 11 -11 -6 -22 3 6 -10 6 13
000020 22 f2 05 06 4a 0d e4 81 3f 0a 45 ff c6 fc 41 18
       34 -14 5 6 74 13 -28 -127 63 10 69 -1 -58 -4 65 24
000030 89 e3 e4 08 0b e3 ef b5 31 8f fb 05 03 19 fd dc
       -119 -29 -28 8 11 -29 -17 -75 49 -113 -5 5 3 25 -3 -36
000040 fc 05 07 ef fa f3 12 f0 07 ec 02 f4 08 f1 03 bd
       -4 5 7 -17 -6 -13 18 -16 7 -20 2 -12 8 -15 3 -67
000050 f6 ff fa 00 27 fd ef fd f5 f3 f7 81 f7 ca 7f ff
       -10 -1 -6 0 39 -3 -17 -3 -11 -13 -9 -127 -9 -54 127 -1
000060 ef bb 31 f0 e0 da c7 fa 1a 0b f7 ff 04 05 06 36
       -17 -69 49 -16 -32 -38 -57 -6 26 11 -9 -1 4 5 6 54
000070 0c 34 03 05 21 e3 29 ed 17 12 09 da f0 81 3f 0b
       12 52 3 5 33 -29 41 -19 23 18 9 -38 -16 -127 63 11
000080 14 a6 1c fd 0d 08 a2 0b d6 27 00 08 db 19 e7 29
       20 -90 28 -3 13 8 -94 11 -42 39 0 8 -37 25 -25 41
000090 1d af 1e 01 d1 0f 46 e1 1a 2b 0b f7 f8 81 4f 2d
       29 -81 30 1 -47 15 70 -31 26 43 11 -9 -8 -127 79 45
0000a0 db f0 15 0f 02 c7 eb f3 19 a5 01 1b 96 06 fb 22
       -37 -16 21 15 2 -57 -21 -13 25 -91 1 27 -106 6 -5 34
0000b0 f6 f5 f2 f8 d6 81 e2 9c fb f2 f3 e9 f1 f3 f7 e8
       -10 -11 -14 -8 -42 -127 -30 -100 -5 -14 -13 -23 -15 -13 -9 -24
0000c0 11 12 a7 ea a9 ba 03 67 03 8c 00 0e 2c 81 19 ef
       17 18 -89 -22 -87 -70 3 103 3 -116 0 14 44 -127 25 -17
0000d0 07 e7 eb ff e1 e3 04 08 e3 23 0a d0 d7 11 b4 62
       7 -25 -21 -1 -31 -29 4 8 -29 35 10 -48 -41 17 -76 98
0000e0 30 f1 0b 0b 0f 06 20 b0 97 f3 fc fe 08 00 81 fb
       48 -15 11 11 15 6 32 -80 -105 -13 -4 -2 8 0 -127 -5
0000f0 74 a8 23 02 f5 02 19 00 cd b6 05 19 0d f6 1f 04
       116 -88 35 2 -11 2 25 0 -51 -74 5 25 13 -10 31 4

onnx::Conv_616_scale f4 [32]
000000 a8 75 8a 3a d4 fc 29 3b 6e ce 3e 3b 21 91 19 3c
       0.0010563629 0.002593805 0.002911474 0.00937298
000010 23 ab 0a 3c 1d ec 9f 3b 31 3d 89 3b 65 ba 06 3b
       0.008463654 0.004880442 0.004188203 0.0020557877
000020 50 21 14 3b 46 ce 17 3b 61 fb 90 3b ac d1 39 3b
       0.0022602864 0.002316372 0.004424498 0.0028353734
000030 a0 b2 32 3b ea 61 cb 3b 35 1e 85 3b 19 d7 80 3b
       0.0027267113 0.0062067406 0.004062439 0.0039318916
000040 2c a8 63 3b ab c8 47 3b 3b ef 8b 3b a7 d7 1a 3c
       0.003473769 0.0030484598 0.004270462 0.00945083
000050 24 68 0a 3c d7 b1 1c 3b 15 6a 87 3b 7f 5e e5 3c
       0.008447681 0.0023909712 0.004132519 0.02799916
000060 c5 c9 1b 3b e3 ce 27 3c 6a 41 9f 3b 34 c9 1f 3b
       0.0023771387 0.010242197 0.004860093 0.00243814
000070 d6 4f 89 3b c4 ba ad 3c 76 9e 44 3b 1b 67 8d 3b
       0.0041904254 0.02120722 0.0030001677 0.0043152696

onnx::Conv_616_quantized i1 [32, 1, 3, 3]
000000 44 59 2e 42 7f 6e 2f 63 5a ba af cb 9f 81 a9 d4
       68 89 46 66 127 110 47 99 90 -70 -81 -53 -97 -127 -87 -44
000010 89 ba 0e 25 1d 43 7f 5f 3d 5f 43 14 d9 af 63 27
       -119 -70 14 37 29 67 127 95 61 95 67 20 -39 -81 99 39
000020 81 77 6b c9 c3 e1 3b 81 e4 71 bb 10 61 e3 c8 cf
       -127 119 107 -55 -61 -31 59 -127 -28 113 -69 16 97 -29 -56 -49
000030 d6 81 97 dd aa a5 2b 45 2e 43 7f 59 29 60 49 ec
       -42 -127 -105 -35 -86 -91 43 69 46 67 127 89 41 96 73 -20
000040 86 8e a7 87 8a 81 95 bf d0 b1 b1 b4 81 8e c7 8a
       -122 -114 -89 -121 -118 -127 -107 -65 -48 -79 -79 -76 -127 -114 -57 -118
000050 ab c0 93 a6 ac 9b af a7 81 c9 d6 ba d6 be 81 ac
       -85 -64 -109 -90 -84 -101 -81 -89 -127 -55 -42 -70 -42 -66 -127 -84
000060 ce a7 b3 28 41 3e 41 7f 66 16 41 3a 0d 2c 1d 36
       -50 -89 -77 40 65 62 65 127 102 22 65 58 13 44 29 54
000070 7f 3d 3b 62 31 19 2f 30 3c 7f 5e 18 41 35 2d 3f
       127 61 59 98 49 25 47 48 60 127 94 24 65 53 45 63
000080 1d 51 7f 4a 34 5a 3d 16 31 27 42 7f 5a 26 41 2a
       29 81 127 74 52 90 61 22 49 39 66 127 90 38 65 42
000090 22 3e 2c 4e 7f 5a 29 41 2f d6 bd dd b4 81 b8 c9
       34 62 44 78 127 90 41 65 47 -42 -67 -35 -76 -127 -72 -55
0000a0 a1 d1 29 44 2f 4a 7f 58 30 54 35 d2 b4 33 dc 97
       -95 -47 41 68 47 74 127 88 48 84 53 -46 -76 51 -36 -105
0000b0 7f e6 d5 3c eb d4 e5 b4 81 c7 bd a5 d3 52 61 1f
       127 -26 -43 60 -21 -44 -27 -76 -127 -57 -67 -91 -45 82 97 31
0000c0 59 7f 4c 28 42 43 2b 47 30 53 7f 47 37 50 1e fc
       89 127 76 40 66 67 43 71 48 83 127 71 55 80 30 -4
0000d0 27 13 c4 81 ab 38 4b 31 d9 b8 d2 b5 81 aa 9e 95
       39 19 -60 -127 -85 56 75 49 -39 -72 -46 -75 -127 -86 -98 -107
0000e0 d2 eb ea fc ef 81 e4 00 eb ee e0 b8 d6 c3 81 ae
       -46 -21 -22 -4 -17 -127 -28 0 -21 -18 -32 -72 -42 -61 -127 -82
0000f0 d3 9b c0 e7 b6 b8 c8 81 89 c5 82 9d 20 55 38 24
       -45 -101 -64 -25 -74 -72 -56 -127 -119 -59 -126 -99 32 85 56 36

onnx::Conv_619_scale f4 [64]
000000 0f 2f 13 3b 09 17 31 3b c5 69 13 3b 7d da 41 3b
       0.002245847 0.0027021787 0.0022493463 0.0029579692
000010 0d d8 0a 3b a8 97 16 3a 30 10 b6 3a 7e ec 8b 3a
       0.0021185905 0.00057446444 0.0013890322 0.0010675339
000020 e1 2b 72 3a f1 e9 c4 3a 0f 51 25 3b 0c 86 cc 3a
       0.0009238106 0.0015023333 0.0025225317 0.0015603914
000030 7b 20 98 3a 6c 39 6b 3a 76 83 15 3b a3 cd ad 3b
       0.001160636 0.0008973095 0.0022813953 0.005304055
000040 63 96 b2 3a fd bc 00 3b 12 ce 32 3b 4c 3c 57 3a
       0.0013625141 0.0019643896 0.0027283472 0.0008210584
000050 b2 f6 d2 3a 7f 89 b7 3a 26 31 85 3a 17 17 42 3a
       0.001609525 0.0014002769 0.0010161742 0.00074039534
000060 07 19 82 3a c4 5f 0c 3b 2a 36 da 3a 3e a3 1f 3b
       0.0009925672 0.0021419385 0.0016648222 0.0024358775
000070 b3 1f e0 3a 66 bf 5c 3b 05 23 79 3b a4 e6 17 3b
       0.0017099291 0.0033683418 0.0038015258 0.0023178244
000080 26 dc 01 3b 53 b8 08 3b f9 0a 62 3a 86 4b 5d 3b
       0.0019815057 0.002086182 0.0008622851 0.003376694
000090 d5 ba 1b 3b de 67 85 3b f4 2f a4 3a 5e 0f 1e 3b
       0.0023762484 0.00407122 0.0012526498 0.0024118046
0000a0 13 a9 8a 3a 6e 9f da 3a aa 47 4b 3a 88 f0 91 3a
       0.0010578952 0.0016679594 0.0007754514 0.0011134306
0000b0 31 a8 24 3b e3 d8 8b 3a 60 2c 18 3b cf ea 27 3b
       0.0025124664 0.0010669496 0.002321981 0.0025622135
0000c0 41 09 74 3a 6c 20 ef 3a 2b a8 53 3b ff 06 d1 3a
       0.000930924 0.0018243915 0.003229628 0.001594752
0000d0 7b 58 71 3c c6 89 0f 3b 79 7d b1 3a 3c 24 32 3a
       0.014730568 0.0021902188 0.0013541422 0.00067955605
0000e0 74 8b 63 3b 35 58 a4 3b 85 e4 bb 3a 91 f9 01 3b
       0.0034720572 0.005015398 0.0014335072 0.001983259
0000f0 05 37 1c 3b 2c 61 0c 3b 87 36 b6 3a 69 9e 60 3b
       0.0023836505 0.0021420224 0.0013901748 0.0034274107

onnx::Conv_619_quantized i1 [64, 32, 1, 1]
000000 13 e1 f1 fb 08 01 ed 06 13 d7 e0 04 f3 e7 f6 f9
       19 -31 -15 -5 8 1 -19 6 19 -41 -32 4 -13 -25 -10 -7
000010 f7 05 eb fc 09 7f fc f6 e8 f8 0c c1 f3 f8 f5 12
       -9 5 -21 -4 9 127 -4 -10 -24 -8 12 -63 -13 -8 -11 18
000020 81 1f 0c 14 e8 d3 16 30 f0 0f 41 ea 08 21 e0 3f
       -127 31 12 20 -24 -45 22 48 -16 15 65 -22 8 33 -32 63
000030 08 03 1c 06 1b a5 ef 21 fa 35 fa 21 fc 2c 29 e5
       8 3 28 6 27 -91 -17 33 -6 53 -6 33 -4 44 41 -27
000040 0b f7 ec ec 0f f1 ff 01 16 f6 cc 15 5b ef 0b 0a
       11 -9 -20 -20 15 -15 -1 1 22 -10 -52 21 91 -17 11 10
000050 eb 04 fa 15 ee 23 ee 26 d8 16 9e 0e 55 cd da 81
       -21 4 -6 21 -18 35 -18 38 -40 22 -98 14 85 -51 -38 -127
000060 09 14 f4 09 2d 08 df f9 08 41 ca 08 7f 09 bb 0c
       9 20 -12 9 45 8 -33 -7 8 65 -54 8 127 9 -69 12
000070 09 3e d3 f9 40 e7 d6 f8 08 f9 db e8 3a 15 d5 e4
       9 62 -45 -7 64 -25 -42 -8 8 -7 -37 -24 58 21 -43 -28
000080 00 17 e0 05 ef ca ef 0b 03 01 14 f0 2c 1d fc 03
       0 23 -32 5 -17 -54 -17 11 3 1 20 -16 44 29 -4 3
000090 ea 00 ec 81 01 f8 fa f7 07 f4 eb f9 21 00 fd db
       -22 0 -20 -127 1 -8 -6 -9 7 -12 -21 -7 33 0 -3 -37
0000a0 e6 a1 c8 8b 53 89 ec b5 ce d9 49 eb 2b f7 ee 81
       -26 -95 -56 -117 83 -119 -20 -75 -50 -39 73 -21 43 -9 -18 -127
0000b0 bb fb d7 05 d5 22 01 bc d2 05 86 f0 3d ba 1d f8
       -69 -5 -41 5 -43 34 1 -68 -46 5 -122 -16 61 -70 29 -8
0000c0 0b 13 e7 f5 03 19 f6 10 e7 12 dd fc 6d ed f2 dc
       11 19 -25 -11 3 25 -10 16 -25 18 -35 -4 109 -19 -14 -36
0000d0 f0 07 e9 23 14 0a fe 0a 0b 08 81 19 42 15 0b 8e
       -16 7 -23 35 20 10 -2 10 11 8 -127 25 66 21 11 -114
0000e0 0b 4b 0f db ec 07 fc b7 ff a7 3f 07 09 f8 ff 1a
       11 75 15 -37 -20 7 -4 -73 -1 -89 63 7 9 -8 -1 26
0000f0 07 f8 0c ff f7 92 06 08 7f c5 f6 61 04 10 e3 f6
       7 -8 12 -1 -9 -110 6 8 127 -59 -10 97 4 16 -29 -10

onnx::Conv_622_scale f4 [64]
000000 bd 6e 97 3c 3f d3 94 3c d8 b6 ad 3c 9e 6d 4e 3c
       0.018485421 0.018167136 0.02120535 0.012599377
000010 5d 9a 19 3d 92 8f 63 3d 87 99 16 3d 37 76 e0 3c
       0.037500728 0.05555684 0.03676751 0.02740012
000020 43 ea f9 3c 31 cd c6 3c e3 bd 8b 3c 1e ff cd 3c
       0.030507213 0.024267765 0.017058318 0.025146063
000030 6e d9 37 3d 58 66 69 3d a2 88 1e 3d 2f b3 28 3c
       0.04488509 0.05698237 0.038704522 0.010296627
000040 03 28 bf 3c 61 08 89 3c 44 65 20 3c 4a 6d f8 3c
       0.023334509 0.016727628 0.009789769 0.03032555
000050 44 21 9e 3c 06 be b4 3c 18 4e 3c 3d c1 b5 e7 3c
       0.019302972 0.022063266 0.045972914 0.02828491
000060 14 df 9c 3c 42 7d 5a 3c 0c d1 ac 3c 6e bf 9a 3c
       0.01914934 0.013335528 0.021095775 0.018890109
000070 92 e9 b7 3c 32 aa 9e 3c 4b 57 32 3c 19 9f af 3c
       0.022450242 0.019368265 0.01088507 0.021438168
000080 2d 15 73 3c 9b 6d 68 3c fe 65 d5 3c 6a 04 f7 3b
       0.014836592 0.014186288 0.02604961 0.007538368
000090 10 29 1b 3c d1 7b 64 3c f7 c1 f3 3c 69 b6 a2 3c
       0.009470239 0.013945536 0.029755576 0.01986237
0000a0 32 73 d0 3c 54 42 b1 3c 9e 04 48 3d 2a 8a 95 3c
       0.025445554 0.021638073 0.04883253 0.018254358
0000b0 31 93 ed 3c 57 95 51 3d 07 95 a0 3c 86 06 18 3c
       0.02900085 0.051167812 0.019602312 0.009278899
0000c0 bf 42 f4 3c 0a fd 07 3d 69 1c 2b 3c f1 91 87 3c
       0.029816983 0.0332003 0.010443785 0.016549082
0000d0 1a 66 15 3c 00 2a b6 3c 44 a0 d5 3c 3e c9 90 3c
       0.009118581 0.022236824 0.026077397 0.017674085
0000e0 89 f7 65 3c cb 48 5c 3c b1 32 8e 3c 62 3f db 3c
       0.014036068 0.01344509 0.017358156 0.026763622
0000f0 d2 14 0e 3c b2 06 d5 3c 13 f2 02 3d 79 19 2d 3c
       0.008671956 0.02600417 0.03196914 0.010565155

onnx::Conv_622_quantized i1 [64, 1, 3, 3]
000000 fc f2 fe 03 81 f6 fb d3 fa ff d5 fe da 7f fa 09
       -4 -14 -2 3 -127 -10 -5 -45 -6 -1 -43 -2 -38 127 -6 9
000010 f2 f3 02 81 e9 1e 66 2c 09 d4 fc fb 2b ef e7 81
       -14 -13 2 -127 -23 30 102 44 9 -44 -4 -5 43 -17 -25 -127
000020 e3 0d ec f9 00 ec fd e9 7f df 12 97 19 12 fd 1d
       -29 13 -20 -7 0 -20 -3 -23 127 -33 18 -105 25 18 -3 29
000030 fc 81 0e 10 19 2e 03 0c 01 0c 81 fe 06 f4 06 eb
       -4 -127 14 16 25 46 3 12 1 12 -127 -2 6 -12 6 -21
000040 04 24 db aa 7f e7 c8 32 19 08 f9 f3 7f d3 cd 0d
       4 36 -37 -86 127 -25 -56 50 25 8 -7 -13 127 -45 -51 13
000050 33 27 7f 3d f9 a3 db e8 e2 e4 1c b0 07 73 81 61
       51 39 127 61 -7 -93 -37 -24 -30 -28 28 -80 7 115 -127 97
000060 24 98 0d f4 ce c5 0d 7f 09 f9 f3 02 ef 04 f6 f9
       36 -104 13 -12 -50 -59 13 127 9 -7 -13 2 -17 4 -10 -7
000070 d6 fa ed 7f f2 fe f6 fb f9 81 e6 ff 1d 0b 02 e7
       -42 -6 -19 127 -14 -2 -10 -5 -7 -127 -26 -1 29 11 2 -25
000080 13 d6 7f d9 0a c8 e3 f0 e2 e1 dd 7f 12 ef 22 1c
       19 -42 127 -39 10 -56 -29 -16 -30 -31 -35 127 18 -17 34 28
000090 e6 00 18 d2 bc 7f dd ec 2b 9b ce 57 cb 2e 32 5c
       -26 0 24 -46 -68 127 -35 -20 43 -101 -50 87 -53 46 50 92
0000a0 2d 81 ff eb f6 f9 7f 20 f9 17 22 ff ff f5 f4 7f
       45 -127 -1 -21 -10 -7 127 32 -7 23 34 -1 -1 -11 -12 127
0000b0 10 f9 04 fc cf 1b 3a 47 81 0e 39 2a d5 e6 d8 e9
       16 -7 4 -4 -49 27 58 71 -127 14 57 42 -43 -26 -40 -23
0000c0 03 bb d6 1b 7f 24 f3 0f 03 f8 81 db 1e 68 23 02
       3 -69 -42 27 127 36 -13 15 3 -8 -127 -37 30 104 35 2
0000d0 f8 f1 40 81 33 0e b1 2c f3 29 eb 18 81 e4 f1 d6
       -8 -15 64 -127 51 14 -79 44 -13 41 -21 24 -127 -28 -15 -42
0000e0 f9 ee 18 f4 f3 81 d4 fc c1 13 ed 03 fb 05 81 17
       -7 -18 24 -12 -13 -127 -44 -4 -63 19 -19 3 -5 5 -127 23
0000f0 0d c8 e3 f4 04 ff 1f 81 fc 13 dd 06 e0 d7 ed f2
       13 -56 -29 -12 4 -1 31 -127 -4 19 -35 6 -32 -41 -19 -14

onnx::Conv_625_scale f4 [64]
000000 9c c7 33 3b 3b 83 e3 3a 8d bf 8f 3b db f6 33 3b
       0.002743221 0.0017357835 0.0043868483 0.002746037
000010 6c 6c a3 3b f1 0f 4e 3b 53 c3 26 3b 32 1d d8 3a
       0.00498729 0.0031442607 0.0025446012 0.0016488193
000020 e1 41 0c 3b 80 c9 4c 3b e7 f2 38 3b 3a e1 02 3b
       0.0021401572 0.0031248033 0.0028220953 0.0019970671
000030 a6 cf cc 3a f7 0f 20 3b b8 61 51 3b 0b 3c 95 3b
       0.0015625849 0.0024423578 0.0031949114 0.004554277
000040 5b 83 c8 3a f8 80 d8 3a 3b c1 69 3b df 3b 0f 3b
       0.0015297936 0.0016517928 0.0035668153 0.0021855754
000050 35 78 37 3b c8 c6 71 3b 38 03 64 3b 90 8a d9 3a
       0.0027995233 0.0036892164 0.0034791958 0.0016597081
000060 bf 7a 41 3b 54 e2 23 3b 4e 03 ff 3a b3 9c b8 3a
       0.0029522625 0.0025006728 0.0019455941 0.0014084786
000070 cd 17 45 3b 22 a3 43 3b e9 55 09 3b ef 0a d0 3a
       0.0030074 0.0029851873 0.0020955747 0.0015872399
000080 e9 ce 35 3b 4e c5 35 3b e4 6b 32 3b cd f6 91 3b
       0.0027741736 0.002773601 0.0027224952 0.00445447
000090 64 8f 00 3b 78 07 2c 3b a9 8f 73 3b e6 34 13 3b
       0.0019616717 0.002624957 0.0037164486 0.002246195
0000a0 73 dc 55 3b 1f 3a 2d 3b 80 a7 07 3b 58 94 04 3b
       0.0032632619 0.0026432348 0.0020699203 0.0020230021
0000b0 af f7 0f 3b e8 2b b3 3a 01 db 2b 3b 63 b0 01 3b
       0.00219677 0.0013669701 0.0026223066 0.0019788973
0000c0 9a 21 64 3b 34 d6 47 3b ff 6f 85 3a 78 d7 27 3b
       0.0034810067 0.0030492665 0.0010180472 0.0025610607
0000d0 af 8d e6 3a e0 92 13 3b 19 36 87 3b 9a b3 5a 3b
       0.0017589832 0.0022517964 0.004126322 0.003337121
0000e0 27 00 10 3b 0a 9d 2a 3b 0b b3 36 3b 43 69 a5 3a
       0.0021972747 0.0026033544 0.0027877714 0.0012619871
0000f0 14 49 46 3b 3b fe 0f 3b 2b 44 04 3b 3f e1 0d 3b
       0.003025596 0.0021971602 0.0020182233 0.002164915

onnx::Conv_625_quantized i1 [64, 64, 1, 1]
000000 e7 03 0d 3f e0 0d fb 05 54 18 e9 0a 0a 00 fd 2d
       -25 3 13 63 -32 13 -5 5 84 24 -23 10 10 0 -3 45
000010 0f 21 f7 f5 f5 19 21 04 0a d6 81 1d d7 05 17 0d
       15 33 -9 -11 -11 25 33 4 10 -42 -127 29 -41 5 23 13
000020 17 e3 0b 0a ff 17 22 07 0a fe f7 ab 07 03 f7 cf
       23 -29 11 10 -1 23 34 7 10 -2 -9 -85 7 3 -9 -49
000030 18 ff 14 09 e8 16 f0 1f f5 d5 fc 20 fc 16 38 0f
       24 -1 20 9 -24 22 -16 31 -11 -43 -4 32 -4 22 56 15
000040 3c eb f5 4b 11 ca e5 f9 b9 f1 3b 3b 00 0e 44 f6
       60 -21 -11 75 17 -54 -27 -7 -71 -15 59 59 0 14 68 -10
000050 f1 04 cd ee d8 c6 c2 f7 2e 40 12 e6 05 18 07 81
       -15 4 -51 -18 -40 -58 -62 -9 46 64 18 -26 5 24 7 -127
000060 56 3d 1a 25 f5 1f ed 12 f4 ee f8 0a d6 35 00 10
       86 61 26 37 -11 31 -19 18 -12 -18 -8 10 -42 53 0 16
000070 d0 25 28 08 ed 10 f3 00 d6 a4 40 fa d7 14 13 00
       -48 37 40 8 -19 16 -13 0 -42 -92 64 -6 -41 20 19 0
000080 16 f6 f5 0e f8 fa f1 03 06 f4 00 04 13 fb fe f9
       22 -10 -11 14 -8 -6 -15 3 6 -12 0 4 19 -5 -2 -7
000090 00 fc 34 f0 01 02 f8 fd 1b f2 10 fa 09 04 1b f9
       0 -4 52 -16 1 2 -8 -3 27 -14 16 -6 9 4 27 -7
0000a0 f4 ff f8 03 fc f5 0c 08 fe f6 09 09 0a 0f 06 7f
       -12 -1 -8 3 -4 -11 12 8 -2 -10 9 9 10 15 6 127
0000b0 ff f0 f0 ec 04 09 00 e5 fb 03 d8 0a 04 05 f9 08
       -1 -16 -16 -20 4 9 0 -27 -5 3 -40 10 4 5 -7 8
0000c0 cc ec 1d b9 0b 10 0a 01 f3 0f e0 08 d5 fd f8 f3
       -52 -20 29 -71 11 16 10 1 -13 15 -32 8 -43 -3 -8 -13
0000d0 00 0e 8b 14 f9 f8 09 0f c7 13 22 05 e6 07 ea 04
       0 14 -117 20 -7 -8 9 15 -57 19 34 5 -26 7 -22 4
0000e0 2c 04 12 f3 1c 05 ee f6 13 05 05 5b e8 27 01 97
       44 4 18 -13 28 5 -18 -10 19 5 5 91 -24 39 1 -105
0000f0 0b 1d 40 17 0d 21 06 7f f4 04 47 f4 f1 02 02 ee
       11 29 64 23 13 33 6 127 -12 4 71 -12 -15 2 2 -18

onnx::Conv_628_scale f4 [64]
000000 cd c1 50 3b 80 70 47 3c a6 6b 82 3b ef 2c 90 3b
       0.0031853796 0.012172818 0.003980118 0.0043998878
000010 df 70 5f 3b 3a e7 6a 3b 27 02 20 3c eb e1 e6 3b
       0.0034094376 0.0035843388 0.009766138 0.0070459745
000020 9c b3 1d 3c 6c d7 8d 3b ad fe 7b 3b 28 93 80 3b
       0.009625342 0.004328659 0.003845136 0.0039237924
000030 a4 21 b3 3b 2a 3f e2 3b bb 2f bc 3b d1 12 a4 3b
       0.0054666568 0.0069045024 0.0057429946 0.005007126
000040 f8 ce c2 3b ca 7f b3 3b 45 14 7f 3b a3 79 a1 3b
       0.0059450828 0.00547788 0.0038921994 0.0049278303
000050 ea d7 e3 3b 14 69 87 3b a3 12 32 3b 5c 04 0a 3c
       0.006953229 0.0041323993 0.0027171753 0.008423891
000060 cd 2b bd 3b 5f 8e 3d 3b 3f cb 9e 3b 12 7b aa 3b
       0.0057730437 0.002892397 0.004846006 0.0052026594
000070 84 ae 88 3b 3b 12 5b 3b 56 71 6c 3b bd a0 ba 3b
       0.0041711945 0.0033427614 0.0036078296 0.005695431
000080 53 f8 93 3b b3 9a 60 3b a2 9a 8e 3b bd 8c 94 3b
       0.0045156865 0.0034271895 0.0043519298 0.004533379
000090 e4 85 0f 3c a3 50 98 3b 98 0a 57 3b e3 48 89 3b
       0.008759949 0.0046482845 0.003281271 0.004189597
0000a0 74 0c b1 3b 03 15 97 3b 9f 76 00 3c af 7c ce 3b
       0.005403096 0.004610659 0.0078407815 0.0063014845
0000b0 87 d2 b8 3b 51 7c 2d 3c 99 f8 c0 3b 68 74 03 3c
       0.005640331 0.010588721 0.00588901 0.008023359
0000c0 2e b9 67 3b 6d c7 e5 3b e7 f1 5f 3c 3c 2e 82 3b
       0.0035358178 0.007012299 0.013668514 0.0039727967
0000d0 21 6d ba 3b 68 16 a2 3b 1b 69 99 3b 26 86 df 3b
       0.0056892787 0.0049465187 0.004681719 0.0068214117
0000e0 b4 45 60 3b df 92 a7 3b 15 20 8a 3b 7d 18 19 3c
       0.0034221234 0.005113944 0.0042152503 0.009344217
0000f0 75 0a c3 3b e9 03 71 3b ca 65 d1 3b 65 b4 86 3b
       0.0059521743 0.0036776012 0.006390308 0.00411086

onnx::Conv_628_quantized i1 [64, 1, 3, 3]
000000 dd ac ca bd 81 b6 d4 be d5 c0 a0 42 da f5 7f 48
       -35 -84 -54 -67 -127 -74 -44 -66 -43 -64 -96 66 -38 -11 127 72
000010 6e 72 18 45 36 45 7f 49 2c 47 20 2c 44 38 37 7f
       110 114 24 69 54 69 127 73 44 71 32 44 68 56 55 127
000020 6a 32 65 4c 21 40 28 44 7f 4f 34 61 53 2a 3f 31
       106 50 101 76 33 64 40 68 127 79 52 97 83 42 63 49
000030 53 7f 50 41 52 2e cb a9 c3 b9 81 a5 ce a0 c7 05
       83 127 80 65 82 46 -53 -87 -61 -71 -127 -91 -50 -96 -57 5
000040 42 d2 60 27 99 7f d6 92 24 3e 40 4c 7f 64 39 52
       66 -46 96 39 -103 127 -42 -110 36 62 64 76 127 100 57 82
000050 2f 11 3b 2f 3c 7f 60 38 75 51 cf b0 ca b7 81 a7
       47 17 59 47 60 127 96 56 117 81 -49 -80 -54 -73 -127 -89
000060 d2 a1 bd e6 c1 cf c5 81 a8 e7 c9 da 29 44 31 3e
       -46 -95 -67 -26 -63 -49 -59 -127 -88 -25 -55 -38 41 68 49 62
000070 7f 5c 1e 46 3a e7 d0 dc c3 81 a3 db a7 c6 1f 3c
       127 92 30 70 58 -25 -48 -36 -61 -127 -93 -37 -89 -58 31 60
000080 33 4b 7f 55 2e 42 26 1c 44 2b 35 7f 68 18 51 48
       51 75 127 85 46 66 38 28 68 43 53 127 104 24 81 72
000090 c5 9c b5 19 05 fe 4b 7f 4b c8 2e 48 94 1e 7d 81
       -59 -100 -75 25 5 -2 75 127 75 -56 46 72 -108 30 125 -127
0000a0 b7 61 1b 34 33 35 7f 4c 2a 4e 28 31 4e 37 47 7f
       -73 97 27 52 51 53 127 76 42 78 40 49 78 55 71 127
0000b0 4d 25 56 32 40 6c 5a 47 7f 5d 1a 23 0b 29 38 17
       77 37 86 50 64 108 90 71 127 93 26 35 11 41 56 23
0000c0 3c 7f 47 2e 58 47 df b3 c5 bf 81 a0 d8 aa bf 37
       60 127 71 46 88 71 -33 -77 -59 -65 -127 -96 -40 -86 -65 55
0000d0 45 43 48 7f 62 27 48 35 2f 4d 2a 49 7f 43 33 5d
       69 67 72 127 98 39 72 53 47 77 42 73 127 67 51 93
0000e0 3d 10 2b 32 45 7f 54 31 5c 35 24 49 2b 41 7f 53
       61 16 43 50 69 127 84 49 92 53 36 73 43 65 127 83
0000f0 1b 33 20 b3 ac be af 81 a0 d1 c2 c3 29 4b 32 3f
       27 51 32 -77 -84 -66 -81 -127 -96 -47 -62 -61 41 75 50 63

onnx::Conv_631_scale f4 [128]
000000 67 63 d8 3a 0a 94 38 3b aa f1 96 3a 57 23 ca 3a
       0.0016509116 0.002816441 0.0011516113 0.0015421909
000010 3e de a4 3a ee 96 02 3b a5 4a d8 3a 31 1f 27 3b
       0.001257844 0.0019926387 0.0016501738 0.002550077
000020 7f 93 c1 3a 6a 9e cc 3a bb 70 bc 3a 36 48 c3 3a
       0.0014768689 0.0015611176 0.0014376858 0.001489884
000030 68 cc e8 3a 2c 5b 00 3b b0 f3 80 3a 42 31 20 3a
       0.0017761113 0.0019585593 0.000983825 0.00061108556
000040 02 a2 0e 3b cc 4b b2 3a 94 f2 97 3a 09 f1 39 3b
       0.0021764045 0.0013602911 0.001159268 0.0028372428
000050 7a 7a 11 3b be 44 28 3a e2 f2 34 3a 41 7d 2d 3b
       0.0022198246 0.0006418935 0.00069026474 0.0026472362
000060 ee ed dc 3a 50 9c d2 3a e3 38 a3 3a ef 8a 14 3b
       0.0016855577 0.0016068313 0.0012452867 0.0022665819
000070 dc cb 74 3a c9 a6 86 3b 90 20 51 3a a9 ed 73 3a
       0.0009338239 0.004109238 0.00079775695 0.00093051285
000080 4d d2 c3 3a 7a d4 c2 3a c1 b1 86 3a 0e 4d 8a 3a
       0.0014939994 0.0014864348 0.0010276363 0.0010551529
000090 d7 0e 9c 3a b4 7a df 3a ab 99 b4 3a 8a 2d 9d 3a
       0.0011906278 0.0017050118 0.0013778707 0.0011991721
0000a0 7f 00 a3 3a ae 84 49 3a 9c 6d c3 3a 12 1c 97 3b
       0.0012436061 0.00076873123 0.0014909985 0.0046115005
0000b0 87 21 01 3b 4d 4b 99 3a 9a fe 83 3a 05 3c bd 3a
       0.0019703822 0.0011695415 0.0010070384 0.0014437443
0000c0 04 05 cf 3a 30 55 75 3a 2f 83 d5 3a 82 a6 54 3a
       0.0015794341 0.0009358702 0.0016289706 0.000811197
0000d0 a8 16 e6 3a 15 0a c2 3a d2 e5 89 3a c5 88 b1 3a
       0.001755436 0.001480403 0.0010520762 0.0013544789
0000e0 a0 e6 8f 3a 1b 18 84 3a aa b0 d1 3a 4f 1a 3b 3a
       0.0010978766 0.0010077985 0.0015998085 0.0007137404
0000f0 91 c2 db 3a 19 b3 8d 3a 7f 25 d1 3a 89 87 b2 3a
       0.0016766359 0.0010810822 0.0015956609 0.0013620715
000100 22 d4 9d 3a 2b a9 bc 3a 92 4d a6 3a 25 50 d2 3a
       0.001204137 0.0014393678 0.0012687913 0.0016045613
000110 b9 8d f1 3a 6c af 51 3a a0 78 56 3a dc eb 94 3a
       0.0018429077 0.0007998857 0.00081814267 0.0011361795
000120 62 22 a5 3a 3b a1 e2 3a 92 f3 1d 3a b0 ed 49 3b
       0.0012598748 0.0017290482 0.00060253695 0.0030811839
000130 cb 8a 9e 3a 4e 2d c8 3a 2b 52 c8 3a d0 07 c6 3a
       0.0012095807 0.0015272291 0.0015283277 0.001510853
000140 bf 11 b3 3a f1 99 45 3b f8 a4 c1 3a ec b4 1b 3b
       0.0013661905 0.003015157 0.0014773896 0.002375896
000150 dd 80 af 3a cf cd 44 3b 6c 37 8a 3a ba e3 cc 3a
       0.0013389845 0.0030029898 0.0010545081 0.0015631833
000160 7e 79 4d 3b 84 80 3f 3b c9 1e d9 3a 43 4c a0 3a
       0.0031352933 0.0029220888 0.0016564961 0.0012229759
000170 22 ae db 3a fd a7 da 3a b6 e7 ad 3a 50 04 a0 3a
       0.001676027 0.0016682144 0.0013267908 0.0012208316
000180 8e eb e2 3a d3 96 c4 3a dd 3d ad 3a 3a 5c b8 3a
       0.0017312632 0.0014998562 0.0013217289 0.0014065572
000190 59 fe 06 3b 88 54 94 3a d3 82 36 3b 70 e7 1f 3b
       0.002059838 0.0011316696 0.0027848973 0.0024399422
0001a0 5c a5 63 3b c7 6a f1 3a 6c 15 82 3a 32 2b 25 3b
       0.0034736013 0.0018418663 0.0009924597 0.0025202748
0001b0 74 8f 63 3a 3b c0 8f 3a 48 8a 0b 3b 9b 64 61 3b
       0.0008680739 0.0010967323 0.002129214 0.003439224
0001c0 4c 39 c4 3a 86 e5 e7 3a 3d af 93 3a 68 88 03 3b
       0.0014970689 0.0017692305 0.0011267435 0.0020070318
0001d0 b3 00 6f 3a a0 95 d7 3a b4 11 c3 3a 1a e7 d7 3a
       0.00091172307 0.001644779 0.0014882595 0.0016472072
0001e0 46 40 fb 3a df b8 57 3b 60 2b db 3a ae b9 b1 3a
       0.0019168935 0.0032916588 0.0016721301 0.0013559365
0001f0 37 53 ce 3a 9f 10 30 3a f0 34 9d 3a b5 1b 7e 3a
       0.0015741353 0.0006716344 0.0011993926 0.000969346

onnx::Conv_631_quantized i1 [128, 64, 1, 1]
000000 2e e1 f9 d7 0c ef 7d f1 00 0d d7 10 02 7f 17 17
       46 -31 -7 -41 12 -17 125 -15 0 13 -41 16 2 127 23 23
000010 eb 03 02 16 38 01 d8 1e 4e c3 e9 f5 1c d2 18 2f
       -21 3 2 22 56 1 -40 30 78 -61 -23 -11 28 -46 24 47
000020 19 22 1b 00 21 3d e0 2a 29 fd de 37 fd 17 36 dc
       25 34 27 0 33 61 -32 42 41 -3 -34 55 -3 23 54 -36
000030 02 0c 12 ec 26 f7 67 06 73 fc 43 19 04 9a dc e8
       2 12 18 -20 38 -9 103 6 115 -4 67 25 4 -102 -36 -24
000040 be 04 00 7f 11 dd 0a 02 fd ff 17 0d 09 02 06 0d
       -66 4 0 127 17 -35 10 2 -3 -1 23 13 9 2 6 13
000050 e4 27 eb f8 1d d1 1d 06 f4 e4 f8 e4 fc 04 cb f4
       -28 39 -21 -8 29 -47 29 6 -12 -28 -8 -28 -4 4 -53 -12
000060 eb f8 0c f3 f1 19 cb d8 f7 05 03 ee 0e 06 f5 01
       -21 -8 12 -13 -15 25 -53 -40 -9 5 3 -18 14 6 -11 1
000070 e2 04 06 11 0e 21 0a 1b f4 f0 07 f9 33 eb ee ff
       -30 4 6 17 14 33 10 27 -12 -16 7 -7 51 -21 -18 -1
000080 08 10 6b b5 f1 f1 00 04 18 fe 18 06 2b eb ed fe
       8 16 107 -75 -15 -15 0 4 24 -2 24 6 43 -21 -19 -2
000090 0e e9 f7 29 f4 15 e7 e6 12 0a ea bc e6 04 0e 00
       14 -23 -9 41 -12 21 -25 -26 18 10 -22 -68 -26 4 14 0
0000a0 09 f7 0b fe fa 0e 26 07 d5 f0 fb ed 10 f7 e9 f1
       9 -9 11 -2 -6 14 38 7 -43 -16 -5 -19 16 -9 -23 -15
0000b0 fe f3 fb ec ec f4 e9 13 01 e2 0f fe 7f 3a 38 33
       -2 -13 -5 -20 -20 -12 -23 19 1 -30 15 -2 127 58 56 51
0000c0 c2 fc fc 0f 19 01 e9 09 f7 14 12 f3 7f e6 11 f8
       -62 -4 -4 15 25 1 -23 9 -9 20 18 -13 127 -26 17 -8
0000d0 f7 03 ff 00 fa fc fb 01 14 01 25 d3 e9 01 12 ea
       -9 3 -1 0 -6 -4 -5 1 20 1 37 -45 -23 1 18 -22
0000e0 eb 07 dc 01 04 e4 05 16 f0 ed 02 db 09 0d f2 09
       -21 7 -36 1 4 -28 5 22 -16 -19 2 -37 9 13 -14 9
0000f0 02 fa 05 07 d9 f1 fa 03 fe 1e 11 f9 47 ce 23 f9
       2 -6 5 7 -39 -15 -6 3 -2 30 17 -7 71 -50 35 -7

onnx::Conv_634_scale f4 [128]
000000 39 32 42 3c 3d 2b 72 3c ae fa b5 3c 0b 2e 6a 3c
       0.011852794 0.014780817 0.02221426 0.014293204
000010 9a 3b 90 3c b9 ad 81 3d 11 b0 3a 3c ef 82 ae 3c
       0.017606545 0.06331963 0.011394517 0.021302668
000020 e4 24 90 3c 6b da 2f 3c 08 94 94 3c 58 58 23 3c
       0.017595716 0.010733227 0.018136993 0.009969793
000030 64 d0 7b 3c cc 25 7d 3c de b0 f0 3c bb 84 2b 3d
       0.015369508 0.015450906 0.029381212 0.04187463
000040 b0 91 74 3c 3a 1b ac 3c ee 37 b2 3c 7f 1e c4 3b
       0.014927313 0.021009076 0.021755185 0.0059850807
000050 2d a9 c4 3b 6a b5 c7 3c 0b b6 09 3d 73 34 83 3b
       0.0060016126 0.024378497 0.033620875 0.004004055
000060 97 8b 52 3c 1c cb 8a 3c 5b 05 70 3c b1 93 78 3c
       0.012850664 0.016942553 0.014649714 0.015171931
000070 3a f1 b1 3c 51 95 ca 3b 41 cf d0 3c de f2 fe 3c
       0.021721471 0.0061823507 0.025489451 0.031121667
000080 32 a3 87 3c ed e7 ab 3c 4f 19 97 3c 74 ec b2 3c
       0.01655731 0.020984614 0.018444685 0.021841265
000090 e9 52 ae 3c 70 a0 17 3c 86 52 c5 3c 97 91 ba 3c
       0.021279769 0.00925456 0.024087202 0.0227745
0000a0 4f ba ca 3c 43 05 ee 3c 33 ae 4c 3c 3f 2c 01 3c
       0.024747042 0.029055243 0.012492704 0.007884084
0000b0 88 6d 8d 3c e7 35 d8 3c f0 32 67 3c 42 e3 27 3c
       0.017264143 0.02639289 0.014111266 0.010247054
0000c0 e9 a1 e1 3c bc f6 8c 3c db 35 3f 3c 89 be ea 3c
       0.027543025 0.017207496 0.011670555 0.028655307
0000d0 0a 7f 3f 3c 4e 76 04 3d 14 a0 50 3c 21 7b 25 3c
       0.011688003 0.032339387 0.012733478 0.010100157
0000e0 a8 9f 1a 3c eb 5a d2 3c 94 0f 30 3c d3 7b 36 3d
       0.009437479 0.025678119 0.010745902 0.04455168
0000f0 01 1c c6 3c 29 22 97 3c 45 1e 80 3c 3b f2 2a 3c
       0.024183275 0.018448906 0.015639434 0.010433729
000100 d5 63 aa 3c d2 5d a6 3c 61 fe aa 3c e6 0c 92 3c
       0.020799557 0.020308409 0.02087325 0.017828416
000110 93 82 55 3c 3d b4 6f 3c 0f 8f f3 3c 92 08 04 3d
       0.01303162 0.0146303745 0.029731302 0.032234736
000120 e7 7d 98 3c 95 2c 9e 3c b7 f3 f9 3c 35 0b ff 3b
       0.018614722 0.019308368 0.03051172 0.0077833184
000130 05 c1 e9 3c fd b9 2b 3c 62 95 7d 3c fe 9f 8b 3c
       0.028534422 0.010481355 0.01547751 0.017044064
000140 ab 58 9b 3c 1c 7c 1a 3c a3 db ca 3c c4 9c 93 3b
       0.018963179 0.009429004 0.024762934 0.004504772
000150 05 16 55 3c 1c 1e f2 3b 65 c1 88 3c 7f 91 50 3c
       0.013005738 0.007388843 0.01669378 0.0127300015
000160 9f 93 d9 3b 33 88 51 3c 42 3e 8f 3c d5 9a 33 3c
       0.0066399123 0.01278882 0.017485742 0.010962208
000170 05 25 8f 3c ae e7 a3 3c 2d f3 8a 3c a0 23 86 3c
       0.017473707 0.020007934 0.016961658 0.01637441
000180 f4 ec b4 3b 58 11 c6 3c 84 04 bf 3c 8c 2e 3f 3e
       0.005521411 0.024178192 0.023317583 0.186701
000190 fe 6a 55 3b 32 b9 10 3d 65 c7 56 3c cf ef 57 3c
       0.0032564993 0.035332866 0.013109063 0.013179733
0001a0 12 2c 31 3c 8a 57 1e 3c a4 83 55 3c 25 19 62 3b
       0.01081373 0.009664426 0.013031874 0.003449985
0001b0 ed fc aa 3c 71 8e 8f 3c 45 74 61 3c c9 9c 1e 3c
       0.020872558 0.017523976 0.013760631 0.009680935
0001c0 3b 00 5f 3c 29 b5 bc 3c e2 50 95 3c 4a c9 89 3c
       0.013610895 0.023035603 0.018227044 0.016819615
0001d0 e6 91 a7 3c ff c5 a3 3c 13 4b 8e 3c 20 62 b0 3c
       0.020455312 0.019991873 0.017369783 0.021531165
0001e0 c2 ef 50 3c ca e4 3d 3c 81 ee 60 3c 55 be 4f 3c
       0.012752475 0.011590192 0.013728739 0.012679656
0001f0 96 66 28 3c 84 cf c5 3c ee b1 73 3c 16 89 01 3d
       0.010278365 0.024146803 0.014873965 0.031624876

onnx::Conv_634_quantized i1 [128, 1, 3, 3]
000000 e6 09 fc 3d 7f 27 08 05 ff 2f 7f 24 eb cb 1b d4
       -26 9 -4 61 127 39 8 5 -1 47 127 36 -21 -53 27 -44
000010 8c dd 39 e6 d3 7f bb c0 37 d2 f0 37 7f 43 eb dd
       -116 -35 57 -26 -45 127 -69 -64 55 -46 -16 55 127 67 -21 -35
000020 e5 e1 ae d3 e5 01 01 92 7f 16 dd f9 0e f2 f9 ef
       -27 -31 -82 -45 -27 1 1 -110 127 22 -35 -7 14 -14 -7 -17
000030 f3 7f ed e9 e7 ee 5b 24 ea 7f 89 cf 23 cc c0 e4
       -13 127 -19 -23 -25 -18 91 36 -22 127 -119 -49 35 -52 -64 -28
000040 c5 e5 f2 7f f5 fd f2 fd d4 06 35 b1 e2 7f d4 e0
       -59 -27 -14 127 -11 -3 -14 -3 -44 6 53 -79 -30 127 -44 -32
000050 20 f8 fd 16 f8 81 f1 02 ca ea e8 c4 ec fa fe d5
       32 -8 -3 22 -8 -127 -15 2 -54 -22 -24 -60 -20 -6 -2 -43
000060 1c 7f 0c ec d1 fa fc 81 d9 fd c4 0d e6 93 dd e7
       28 127 12 -20 -47 -6 -4 -127 -39 -3 -60 13 -26 -109 -35 -25
000070 09 f4 1b 7f 27 f3 10 ff 01 7f 19 f7 05 f4 f2 e5
       9 -12 27 127 39 -13 16 -1 1 127 25 -9 5 -12 -14 -27
000080 eb f1 7f e8 e2 f3 eb f7 f6 fd e8 7f ee fd f3 fd
       -21 -15 127 -24 -30 -13 -21 -9 -10 -3 -24 127 -18 -3 -13 -3
000090 03 24 2c d2 e0 7f e3 b7 fd f1 d7 fd e0 81 dd 03
       3 36 44 -46 -32 127 -29 -73 -3 -15 -41 -3 -32 -127 -35 3
0000a0 ee f8 e9 f9 dd f1 7f 11 eb 11 e6 01 0c 03 29 7f
       -18 -8 -23 -7 -35 -15 127 17 -21 17 -26 1 12 3 41 127
0000b0 2e 17 62 fd 04 fc fd b9 81 bd e2 db fe e1 fd e8
       46 23 98 -3 4 -4 -3 -71 -127 -67 -30 -37 -2 -31 -3 -24
0000c0 d9 cc db 06 7f 2f 06 ff fd 1e 81 12 0e ea fb e3
       -39 -52 -37 6 127 47 6 -1 -3 30 -127 18 14 -22 -5 -29
0000d0 a0 b2 16 81 36 bd ba d5 e6 ce fc d4 c7 46 f1 09
       -96 -78 22 -127 54 -67 -70 -43 -26 -50 -4 -44 -57 70 -15 9
0000e0 7f 3a 79 2f ec 06 f6 e1 81 e7 f6 b3 f9 17 02 a3
       127 58 121 47 -20 6 -10 -31 -127 -25 -10 -77 -7 23 2 -93
0000f0 2b 7f 03 f5 0a 00 fb 7f 0c 25 eb fd fe 09 fd fa
       43 127 3 -11 10 0 -5 127 12 37 -21 -3 -2 9 -3 -6

onnx::Conv_637_scale f4 [128]
000000 9b 6b cf 3a 56 06 00 3b 6c d4 b2 3a 12 4c c7 3a
       0.0015824916 0.0019535027 0.0013643629 0.0015205166
000010 59 ca 0c 3b 83 56 80 3a ec e3 be 3a 60 fd 09 3b
       0.0021482913 0.0009791408 0.0014563776 0.0021055564
000020 79 af bc 3a 1c e4 44 3b 83 86 8a 3b b0 09 12 3b
       0.0014395557 0.003004319 0.004227461 0.0022283606
000030 ae 10 4f 3a ac 45 d5 3a 5d 61 72 3a c3 cc c8 3a
       0.0007898909 0.0016271374 0.00092460756 0.0015319813
000040 61 5a 86 3a 67 43 c1 3a 60 18 be 3a 6e d7 19 3a
       0.0010250324 0.0014744819 0.0014503114 0.00058685883
000050 6d 08 90 3a 60 3d d4 3a 2c 94 03 3b d3 9d 46 3b
       0.0010988839 0.0016192608 0.002007733 0.0030306473
000060 c1 f8 ad 3a 66 97 b9 3a f1 39 da 3a e7 d1 6e 3a
       0.0013272987 0.00141595 0.0016649348 0.00091102574
000070 4d c4 19 3b 10 5b b1 3a 43 41 be 3a df bb 06 3b
       0.0023462952 0.0013531167 0.0014515299 0.0020558757
000080 08 5d 1e 3b eb 08 c5 3a 30 68 de 3a e7 a2 84 3a
       0.0024164338 0.0015032565 0.0016968306 0.001011935
000090 d8 e0 9a 3a 09 06 90 3a ce f4 b3 3b 1b 19 c0 3a
       0.0011816276 0.0010988127 0.0054918295 0.001465592
0000a0 ef 8f f4 3a 6d 43 89 3a 1c 32 76 3a 02 54 b3 3a
       0.0018658618 0.0010472365 0.0009391622 0.0013681652
0000b0 96 dd 39 3a 10 64 f3 3a e1 56 50 3b 12 56 8f 3a
       0.0007090209 0.001856925 0.0031790065 0.0010935685
0000c0 1c b3 8c 3a 43 fd 7c 3a 48 f4 12 3b 4c 0a c3 3a
       0.0010734531 0.0009650776 0.0022423435 0.0014880388
0000d0 fd 02 29 3b 53 c7 51 3b b4 7a d0 3a 29 7f 59 3b
       0.0025789135 0.0032009676 0.0015905709 0.0033187366
0000e0 34 52 ec 3a 72 91 a8 3a d3 2c f7 3a 74 00 8f 3a
       0.001802987 0.0012860729 0.0018857963 0.0010910169
0000f0 65 90 d1 3a 4b cc ad 3a 74 3d bc 3a 48 6b d4 3a
       0.0015988467 0.0013259737 0.0014361576 0.0016206289
000100 e7 a0 37 3a 27 09 92 3a 0d 47 b3 3a a8 94 eb 3a
       0.00070048723 0.0011141644 0.0013677791 0.001797338
000110 76 4c 9d 3a e2 84 30 3b 97 94 47 3b 90 77 ed 3a
       0.0012000937 0.0026934673 0.0030453557 0.0018117297
000120 83 d2 f6 3a 8d 1a bb 3a 88 71 b3 3a e9 4f d9 3a
       0.0018831048 0.001427488 0.0013690451 0.0016579601
000130 b5 8c d0 3a 55 4e 7d 3a 91 d3 bc 3a 88 94 ea 3a
       0.0015911075 0.00096628565 0.0014406313 0.0017897049
000140 e4 39 a4 3a ee b3 b4 3a aa 7c 0a 3b 90 17 16 3b
       0.001252946 0.0013786533 0.0021131434 0.0022902228
000150 f9 f4 24 3b 9d 54 f7 3a a6 95 ee 3a ad 94 c5 3a
       0.002517043 0.0018869821 0.0018202558 0.0015074216
000160 9b 51 23 3b dd 8d 84 3a 03 2b 8c 3a 49 95 b8 3a
       0.0024920467 0.0010113079 0.0010693971 0.0014082576
000170 0d 7d cc 3a 50 78 17 3a ac eb 1d 3b 8b 66 d1 3a
       0.0015601233 0.0005778121 0.002409677 0.0015975995
000180 83 30 01 3b 6a e8 80 3a 49 8d b4 3a 47 63 13 3b
       0.0019712753 0.000983489 0.0013775016 0.0022489594
000190 4d 24 e9 3a fb 1b c7 3a 7e bd 0b 3b 8e 57 2b 3b
       0.0017787308 0.0015190834 0.0021322663 0.0026144716
0001a0 c7 cd 53 3b 61 a1 0a 3b 93 c4 73 3a d7 13 ee 3a
       0.0032318698 0.0021153318 0.0009299006 0.0018163872
0001b0 24 7f a3 3a 25 b1 c0 3a e2 88 e6 3a 4d 05 be 3a
       0.0012473804 0.0014701231 0.0017588402 0.0014497429
0001c0 73 32 94 3a 64 da 06 3b 39 95 54 3a 99 02 e8 3a
       0.0011306539 0.0020576948 0.0008109394 0.001770097
0001d0 da 00 c5 3a b1 7b 15 3b cc fa 93 3a 1d 53 ac 3a
       0.0015030161 0.0022809322 0.0011289953 0.0013147328
0001e0 1e b9 33 3b 4d 09 54 3b 6f 00 88 3a f6 89 e5 3a
       0.002742357 0.0032354177 0.0010376106 0.0017512429
0001f0 c7 ce 05 3b 54 64 c6 3a 62 5a 8a 3a cb cb cf 3a
       0.0020417438 0.0015136101 0.0010555501 0.0015853582

onnx::Conv_637_quantized i1 [128, 128, 1, 1]
000000 18 d5 f7 16 15 28 eb dc d9 e1 e7 30 cc 9b 2d 0d
       24 -43 -9 22 21 40 -21 -36 -39 -31 -25 48 -52 -101 45 13
000010 28 24 e2 ff ca cd f8 08 10 f8 e0 e1 d6 ee 35 20
       40 36 -30 -1 -54 -51 -8 8 16 -8 -32 -31 -42 -18 53 32
000020 b9 27 db c2 e6 13 33 91 d7 cc f4 b9 f4 0d 32 e7
       -71 39 -37 -62 -26 19 51 -111 -41 -52 -12 -71 -12 13 50 -25
000030 7f fc f8 1f d7 00 de e6 dd 2d 28 08 f3 15 f7 d1
       127 -4 -8 31 -41 0 -34 -26 -35 45 40 8 -13 21 -9 -47
000040 09 dc fd 3c 5d 1c f0 ff e7 f8 2b 53 0d aa 1a bd
       9 -36 -3 60 93 28 -16 -1 -25 -8 43 83 13 -86 26 -67
000050 18 17 17 3d d8 ed 40 3c f8 01 cf 36 58 1f c8 ee
       24 23 23 61 -40 -19 64 60 -8 1 -49 54 88 31 -56 -18
000060 ca c0 3f eb ff 17 c2 cc d3 24 1d ff ca c5 19 d7
       -54 -64 63 -21 -1 23 -62 -52 -45 36 29 -1 -54 -59 25 -41
000070 25 fa fe fa df e0 f6 c5 f7 30 ea fa a7 0d f9 fb
       37 -6 -2 -6 -33 -32 -10 -59 -9 48 -22 -6 -89 13 -7 -5
000080 de f3 51 08 e3 15 05 04 0a 45 22 02 f6 42 1e d1
       -34 -13 81 8 -29 21 5 4 10 69 34 2 -10 66 30 -47
000090 fd c7 e8 24 1d 21 d4 27 e5 fb fc cd 4e 08 f3 dd
       -3 -57 -24 36 29 33 -44 39 -27 -5 -4 -51 78 8 -13 -35
0000a0 39 e9 f7 0c 23 f7 da fd 2b eb 06 12 ef 34 e9 df
       57 -23 -9 12 35 -9 -38 -3 43 -21 6 18 -17 52 -23 -33
0000b0 da 45 e6 0a 05 e6 1b 1f e0 ff f6 d1 df 18 fa e4
       -38 69 -26 10 5 -26 27 31 -32 -1 -10 -47 -33 24 -6 -28
0000c0 81 f2 f3 e8 e9 d7 03 e9 1a 09 e7 ed ea 06 fe f7
       -127 -14 -13 -24 -23 -41 3 -23 26 9 -25 -19 -22 6 -2 -9
0000d0 1a 5b 04 04 f2 0d 25 4d 12 da f5 1f f3 ff fd 24
       26 91 4 4 -14 13 37 77 18 -38 -11 31 -13 -1 -3 36
0000e0 e8 ed 01 ee c0 e5 f4 35 fd fc fd d4 f4 d2 14 e7
       -24 -19 1 -18 -64 -27 -12 53 -3 -4 -3 -44 -12 -46 20 -25
0000f0 0d b9 ef 29 f5 04 f1 61 f8 26 f3 df b1 f9 20 10
       13 -71 -17 41 -11 4 -15 97 -8 38 -13 -33 -79 -7 32 16
